data.pth (torch, 6423 bytes, 6 tensors)

l1.weight f4 [12, 54]
0	0x3e2e6676	0.17031273
1	0x3db310ff	0.08743476
2	0xbe24b174	-0.16083318
3	0x3e931899	0.28729704
4	0xbf2e0cc8	-0.6798825
5	0xbec19395	-0.3780791
6	0xbf01593f	-0.50526804
7	0x3e84d144	0.25940907
8	0x3ec81826	0.39080924
9	0xbe1a7031	-0.1508186
10	0x3dca2764	0.098707944
11	0x3ebbbc18	0.36666942
12	0x3ec9f447	0.3944418
13	0x3eeed7ad	0.46648923
14	0x3e6a8fa7	0.22906362
15	0x3f1450f3	0.5793602
16	0x3f0c26b5	0.5474656
17	0xbeae7ee4	-0.34081185
18	0x3e7a5b91	0.24448992
19	0x3f00069c	0.50010085
20	0x3edf035c	0.4355725
21	0x3ed38e99	0.4131973
22	0x3ed54a36	0.4165818
23	0xbeae90f9	-0.3409498
24	0xbeae7d8d	-0.34080163
25	0xbeae88ed	-0.3408884
26	0xbe27b2b2	-0.1637676
27	0x3e235432	0.15950087
28	0xbcffcfad	-0.031226957
29	0xbdeb244e	-0.11481534
30	0x3e0c3560	0.13692236
31	0x3e67aea1	0.2262521
32	0x3e73a68c	0.23794001
33	0xbe8f6953	-0.28010044
34	0x3d8baa3b	0.06819578
35	0x3e74a0b4	0.23889428
36	0x3eb6e1cb	0.3571914
37	0x3d1b250f	0.03787714
38	0x3deff1c4	0.11716035
39	0x3ef0249a	0.46902925
40	0x3f0bf66d	0.5467289
41	0x3ebf052c	0.37308633
42	0x3e464da6	0.19365558
43	0x3dcf1c75	0.101128496
44	0x3e74f578	0.23921764
45	0x3e14d116	0.14532885
46	0xbeb239e0	-0.3480978
47	0x3de4ca11	0.111713536
48	0xba21e228	-0.00061753625
49	0x3e971c79	0.2951391
50	0x3cad1637	0.021128757
51	0x3eb86f30	0.3602233
52	0x3e3e505f	0.18585347
53	0x3e7a560e	0.2444689
54	0x3c849f76	0.016189318
55	0xbd8de2ab	-0.06927999
56	0x3e46a900	0.19400406
57	0x3dd7cb63	0.1053684
58	0x3f1d751b	0.61506814
59	0x3e963090	0.29333925
60	0x3e3b58a4	0.18295532
61	0x3df2b6ac	0.11851248
62	0x3ed4bdee	0.41551155
63	0x3daf2b8d	0.085532285
64	0x3e6dd993	0.23227529
65	0xbf0d9b7e	-0.5531539
66	0xbe29735f	-0.16547917
67	0x3f14c019	0.5810562
68	0xbe800f27	-0.2501156
69	0xbea0a5de	-0.31376547
70	0xbea84843	-0.3286763
71	0x3e8dfa8c	0.27730215
72	0x3cb9591a	0.022625495
73	0xbe3c0c93	-0.18364172
74	0xbef28998	-0.473706
75	0xbe82e3c4	-0.25564396
76	0x3ecf0c20	0.40438938
77	0x3e99b87c	0.30023563
78	0x3e97b8a1	0.29633048
79	0x3ebff6f1	0.3749309
80	0x3e30638f	0.17225479
81	0x3e497fb8	0.19677627
82	0x3e913a98	0.28365016
83	0xbccd622e	-0.02507123
84	0xbdd85e86	-0.10564904
85	0x3e8d2b22	0.2757197
86	0xbe79caa8	-0.24393713
87	0x3e297537	0.1654862
88	0x3e844bba	0.25839025
89	0x3e1f947a	0.15583983
90	0x3ea9f890	0.3319745
91	0x3e866d55	0.2625529
92	0x3e8d7354	0.2762705
93	0x3f017037	0.5056185
94	0x3f05e0ad	0.52295953
95	0xbe4f7eab	-0.20263164
96	0x3e999a4c	0.30000532
97	0x3dc06509	0.09394271
98	0x3e500e41	0.20317937
99	0xbd618c6e	-0.055065565
100	0xba7b3dda	-0.0009584107
101	0x3ea74f71	0.32677796
102	0x3ea0186d	0.31268635
103	0xbe57e3d0	-0.21082997
104	0x3ee5b8a4	0.44867432
105	0xbdb19de0	-0.086726904
106	0x3e1ed7e1	0.15512039
107	0xbe4905bd	-0.19631095
108	0x3dab170a	0.08354004
109	0xbe876362	-0.2644301
110	0x3eafbc4a	0.3432334
111	0xbe97058b	-0.29496416
112	0x3f139ded	0.5766285
113	0x3ea538b0	0.32269812
114	0x3eaa4b6e	0.33260673
115	0x3ec575f4	0.38566554
116	0xbda4693a	-0.08027883
117	0xbd584bc6	-0.05280664
118	0x3ec4a3f0	0.38406324
119	0x3e878adf	0.26473138
120	0xbea3709b	-0.3192185
121	0xbef93970	-0.48676634
122	0xbea7df43	-0.32787523
123	0x3e9a3aed	0.30123082
124	0x3e9dfd85	0.30857483
125	0x3f0c34ae	0.5476788
126	0x3e01f792	0.12692097
127	0x3e12b6b9	0.14327516
128	0x3e79b54a	0.24385563
129	0xbe7b662c	-0.24550694
130	0x3dd16ff6	0.10226433
131	0x3ec26ad5	0.3797213
132	0x3ef65a30	0.48115683
133	0x3ecc8dc6	0.39951915
134	0x3ea5f222	0.32411295
135	0x3be21f53	0.006900707
136	0xbd54b724	-0.05193247
137	0xbe7a763d	-0.24459167
138	0x3e8f11dc	0.27943313
139	0xbc419ee7	-0.01181767
140	0xbe6e2dc4	-0.23259646
141	0x3d88412e	0.06653057
142	0x3da7451c	0.081674784
143	0xbc83c0a1	-0.016083064
144	0xbe179e84	-0.14806563
145	0x3e5aa9da	0.21353856
146	0x3e384f99	0.17999114
147	0x3df4b4f0	0.119485736
148	0x3ebc5e8c	0.36790884
149	0x3e574a75	0.21024497
150	0x3eb7c21d	0.35890284
151	0x3f0ad094	0.54224515
152	0x3dce79f3	0.10081854
153	0x3dfc32b0	0.123143554
154	0xbeeab7a7	-0.4584324
155	0x3ce6dcc4	0.028181441
156	0x3e768298	0.24073255
157	0x3dc137b8	0.09434456
158	0x3e8b8576	0.2725026
159	0x3e1ca04c	0.15295523
160	0x3e2a715d	0.16644807
161	0xbbbce510	-0.005764611
162	0xbcc31f4c	-0.023818634
163	0xbe96dcc1	-0.29465297
164	0x3e3fbf9c	0.18725437
165	0x3d65bc9d	0.05608808
166	0x3e2ca778	0.1686076
167	0x3e47d62a	0.19515291
168	0xbb6f8536	-0.0036547906
169	0xbd169622	-0.03676427
170	0x3dc5ef26	0.096647546
171	0xbdb6d3aa	-0.089270905
172	0x3d8f63b1	0.070014365
173	0x3eb4ae67	0.35289308
174	0xbeee5683	-0.46550378
175	0xbe9f0c63	-0.31064138
176	0xbe8fd22e	-0.28090042
177	0x3f36cf4f	0.7141008
178	0x3eed99a3	0.46406278
179	0x3ea21e50	0.31663752
180	0xbdf01087	-0.11721902
181	0xbcb1b073	-0.021690583
182	0x3efe5111	0.49671224
183	0xbea5719c	-0.3231324
184	0xbf073064	-0.52808213
185	0x3ee87566	0.45402068
186	0x3eeac865	0.45856014
187	0x3ef8d405	0.48599258
188	0x3e7a7978	0.24460399
189	0xbcd21d05	-0.025648603
190	0x3e0422da	0.1290392
191	0xbcfb3bc2	-0.030668143
192	0x3f005495	0.5012906
193	0x3dbeb6ec	0.09312233
194	0xbe2625d7	-0.16225372
195	0x3d62e9e1	0.055398826
196	0xbcc61b47	-0.024182929
197	0xbe3f4a78	-0.18680751
198	0x3d941a68	0.07231599
199	0x3d7df390	0.061999857
200	0xbe1dd42f	-0.15412973
201	0xbf139cea	-0.57661307
202	0xbe9c53ac	-0.30532587
203	0x3eda6382	0.42654043
204	0x3e9c72f4	0.30556452
205	0x3e2ee67f	0.17080115
206	0xbcf675df	-0.030085502
207	0x3eebeba7	0.46078226
208	0xbdfb95ca	-0.12284429
209	0x3d5c336a	0.05375997
210	0x3eb4da42	0.35322767
211	0x3e0ec157	0.13940941
212	0xbceda9be	-0.029011603
213	0xbe75314c	-0.23944587
214	0xbe384d2d	-0.1799819
215	0x3e7c7795	0.24654992
216	0xbd552a4d	-0.052042294
217	0xbda672c4	-0.081273586
218	0xbe453a60	-0.1926055
219	0x3e7d6439	0.24745263
220	0xbef09433	-0.46988067
221	0xbe4c4e53	-0.19951753
222	0x3d812526	0.063059136
223	0xbdf85bf1	-0.121269114
224	0x3e9b3311	0.30312398
225	0x3ebffd5c	0.37497985
226	0x3e02f098	0.12787092
227	0xbdedca8c	-0.116108984
228	0xbea7f452	-0.3280359
229	0x3f455eb1	0.7709761
230	0xbd67af1e	-0.05656349
231	0x3f29058b	0.6602408
232	0x3ee71c27	0.45138666
233	0xbea99fb6	-0.33129662
234	0xbd28e10e	-0.041230254
235	0xbdab9619	-0.08378238
236	0xbd9d709e	-0.07687496
237	0xbdd0a744	-0.101881534
238	0x3f088048	0.5332074
239	0xbea99f14	-0.3312918
240	0xbea99c6a	-0.33127147
241	0xbea7c336	-0.32766122
242	0xbd8caddc	-0.068690985
243	0x3e812554	0.25223792
244	0x3d98aeb8	0.074552
245	0x3ecfe3ba	0.4060343
246	0xbe49af1f	-0.1969571
247	0x3e9457a7	0.28973123
248	0xbea47b0d	-0.3212513
249	0x3e6a94a7	0.22908269
250	0x3df41409	0.11917884
251	0x3e1c2cb6	0.15251431
252	0x3e68fe31	0.22753216
253	0x3dcbb111	0.09945882
254	0x3e863e3a	0.2621935
255	0x3ef71309	0.4825671

l1.bias f4 [12]
0	0x3eae80a5	0.34082523
1	0x3f0d9f38	0.55321074
2	0x3f019c13	0.50628775
3	0x3f59b544	0.85042214
4	0x3ea99422	0.3312083
5	0x3eb69a98	0.3566482
6	0x3eb3e7ed	0.35137883
7	0x3ee514df	0.44742486
8	0x3e923423	0.28555402
9	0x3ed117f5	0.4083859
10	0x3f28ea26	0.6598228
11	0x3ea40ec5	0.32042518

l2.weight f4 [12, 12]
0	0x3f5776f1	0.84165865
1	0x3f110d67	0.56661075
2	0xbebfddf0	-0.37474012
3	0xbea4cbea	-0.32186824
4	0x3ed969d0	0.4246354
5	0x3f251961	0.6449185
6	0x3e645d17	0.22301136
7	0xbedb31fe	-0.4281158
8	0x3e91bc9a	0.28464204
9	0x3e920d13	0.285256
10	0xbf819c7c	-1.012588
11	0x3ed41f89	0.4143031
12	0x3eed617e	0.46363443
13	0xbd1cb443	-0.03825785
14	0xbe31328f	-0.17304443
15	0x3dc477af	0.0959314
16	0x3f141772	0.57848275
17	0x3ed382a5	0.4131061
18	0x3cb61b9e	0.022229966
19	0x3eb5bd28	0.35495877
20	0xbf3f582d	-0.7474392
21	0x3ecc930a	0.39955932
22	0xbf62656b	-0.88436
23	0xbce16d8e	-0.02751806
24	0x3e880a89	0.26570538
25	0xbe84e9e2	-0.25959688
26	0x3eaaeca8	0.3338368
27	0x3f5ec30a	0.87016356
28	0xbe3778ae	-0.1791713
29	0xbeab86f7	-0.33501408
30	0xbc438678	-0.011933915
31	0x3ebdcb58	0.370692
32	0x3f437230	0.7634611
33	0x3e9a3173	0.30115852
34	0x3ed4b3d1	0.4154344
35	0xbf533a38	-0.8251071
36	0x3e901ded	0.28147832
37	0x3e38790c	0.18014926
38	0x3e8a44e6	0.2700569
39	0x3c953806	0.01821519
40	0x3efb6dc3	0.4910718
41	0x3f036f9c	0.5134218
42	0x391fee26	0.00015252139
43	0x3e51c832	0.20486525
44	0x3de6a6c5	0.112622775
45	0xbf4d044e	-0.80084693
46	0xbf57e348	-0.8433118
47	0xbf024452	-0.508855
48	0x3eaf34ae	0.3421988
49	0xbea01592	-0.31266457
50	0xbc90ed32	-0.017691229
51	0x3f1cf949	0.6131788
52	0x3e1a4a4c	0.15067405
53	0xbddf3dbf	-0.10900449
54	0x3e883763	0.26604757
55	0x3f237376	0.63848054
56	0x3ecb6c36	0.39730996
57	0x3ee29820	0.44256687
58	0xbe3cb202	-0.1842728
59	0xbf6056ef	-0.8763265
60	0x3f282a29	0.6568933
61	0xbf2feed4	-0.687238
62	0x3e9cf880	0.3065834
63	0x3eed6b98	0.4637115
64	0x3e23bca0	0.15989923
65	0x3aa7719a	0.0012774945
66	0x3f528cc0	0.8224602
67	0x3f39b4e0	0.7254162
68	0x3e5d6ac8	0.21622765
69	0x3dc33d14	0.09533134
70	0xbf3a7575	-0.72835475
71	0xbe2088b8	-0.15677154
72	0xbe8db8e4	-0.27680123
73	0x3e99c0e5	0.3002998
74	0x3f3f9f36	0.7485231
75	0x3f45ca36	0.77261674
76	0x3d0b5d4c	0.03402452
77	0xbc9b3749	-0.01894726
78	0x3f02ecaf	0.511424
79	0x3f7d56d0	0.9896059
80	0xbf04a232	-0.5180999
81	0xbf1955af	-0.5989637
82	0x3e00de16	0.12584719
83	0xbf065730	-0.5247679
84	0x3f452655	0.77011615
85	0xbe8007fa	-0.25006086
86	0x3d7a2264	0.061067954
87	0xbef4fd95	-0.47849718
88	0x3e9ceb63	0.30648336
89	0x3dc40d88	0.095728934
90	0x3f2f8b24	0.68571687
91	0x3d316260	0.04330671
92	0x3f0482be	0.51761997
93	0x3e3e4234	0.18579942
94	0xbe8b7e9f	-0.27245042
95	0xbeca955f	-0.39567086
96	0x3d15acfd	0.036541928
97	0x3f713bf4	0.94232106
98	0xbd150a88	-0.036386997
99	0x3f550d9d	0.832239
100	0x3f6c2ca3	0.9225561
101	0x3f2472db	0.64237756
102	0xbebb659f	-0.36600968
103	0x3e926ebd	0.28600112
104	0xbf13aea8	-0.5768838
105	0x3ed728be	0.4202327
106	0x3f83b825	1.0290571
107	0x3f2db927	0.67860645
108	0x3a62d533	0.0008652985
109	0x3e47c646	0.19509229
110	0x3eda28ad	0.42609158
111	0xbde297a7	-0.11064082
112	0xbdd091d2	-0.10184063
113	0x3e12d3ff	0.14338683
114	0x3e97ad76	0.29624528
115	0x3f4dc315	0.80375797
116	0xbea1c306	-0.31594104
117	0xbee95bdf	-0.45577905
118	0xbe46f4a7	-0.19429265
119	0x3f27708e	0.6540612
120	0x3e553cb2	0.20823935
121	0x3f41da82	0.7572404
122	0x3ea1fde5	0.3163902
123	0xbe7c0a72	-0.2461336
124	0x3f1470da	0.579847
125	0x3f19f1e0	0.60134697
126	0x3edb10c6	0.42786235
127	0xbe8e7cc9	-0.2782958
128	0x3e16d00d	0.14727803
129	0xbf2e7e4c	-0.68161464
130	0xbef6904b	-0.48156962
131	0x3f6ec1ba	0.93264353
132	0xbefe4aae	-0.4966635
133	0x3f048887	0.51770824
134	0x3f5ae6e1	0.85508543
135	0x3f3f0916	0.7462324
136	0xbf18e979	-0.5973125
137	0x3e897a0f	0.26850936
138	0x3dd68dfa	0.10476299
139	0x3eb564b3	0.3542839
140	0x3f030315	0.5117658
141	0xbf34393a	-0.7039982
142	0x3f68442b	0.90729016
143	0x3d7082db	0.058718543

l2.bias f4 [12]
0	0x3d6d2a94	0.057901934
1	0xbe97d110	-0.2965169
2	0x3ed77035	0.42077795
3	0xbdd03083	-0.10165503
4	0x3ca5b20b	0.020226499
5	0xbd7d271d	-0.06180488
6	0x3da97f4c	0.08276233
7	0x3e92eb45	0.2869512
8	0x3f2971ba	0.6618916
9	0xbc295878	-0.010336034
10	0xbd409685	-0.047018547
11	0x3f02ab60	0.5104275

l3.weight f4 [8, 12]
0	0xbee6b20d	-0.45057717
1	0xbf4fba95	-0.81144077
2	0xbf794092	-0.9736415
3	0xbf6f76ad	-0.9354046
4	0xbf409114	-0.7522137
5	0xbe06423e	-0.13111207
6	0x3eb061a6	0.344495
7	0xbef6f704	-0.48235333
8	0x3d1534b5	0.03642722
9	0x3f1f1f85	0.6215747
10	0x3e8bd0af	0.2730765
11	0x3e0ffdf8	0.14061725
12	0x3eef00a7	0.46680185
13	0x3ea1ba0d	0.31587258
14	0xbf37011e	-0.7148608
15	0xbf52dedb	-0.823713
16	0xbf550fb2	-0.83227074
17	0xbf8789a9	-1.0588886
18	0xbf82c649	-1.0216762
19	0xbec67b14	-0.38765776
20	0x3ed63485	0.41836944
21	0x3e390f77	0.18072306
22	0x3ed237c8	0.41058183
23	0xbf852996	-1.0403316
24	0xbda670ea	-0.081270054
25	0x3eba385a	0.36371118
26	0xbf033f99	-0.5126892
27	0x3f04c356	0.5186056
28	0xbd2724ee	-0.040806703
29	0x3ebe0fe2	0.37121493
30	0x3ed20225	0.4101726
31	0xbe13af96	-0.1442245
32	0xbde8678f	-0.11347877
33	0x3a8d8daa	0.0010799665
34	0xbe6fbb3f	-0.23411272
35	0xbeef4a63	-0.4673644
36	0xbf5289c2	-0.8224145
37	0xbf4ee6df	-0.8082103
38	0x3ebad397	0.36489555
39	0xbf7d5055	-0.989507
40	0x3f185a71	0.59513
41	0x3f233e94	0.6376736
42	0x3dd20c30	0.10256231
43	0xbe989099	-0.2979782
44	0xbe8fe2e2	-0.28102785
45	0xba994d65	-0.0011696039
46	0xbf684bfc	-0.9074094
47	0xbd86f8ed	-0.065904476
48	0xbf371b46	-0.7152599
49	0xbf1fd518	-0.6243453
50	0x3eb67e9a	0.35643464
51	0xbf4c46fa	-0.797958
52	0x3b2c96b6	0.0026334948
53	0xbf8adcc9	-1.0848628
54	0x3ef96e56	0.48716992
55	0xbf844d2c	-1.0336051
56	0xbcb1bdca	-0.021696944
57	0xbeb4cc8c	-0.35312307
58	0xbf7a44a0	-0.97760963
59	0x3f20389d	0.62586385
60	0x3e955115	0.29163423
61	0xbf0ef851	-0.5584765
62	0x3ebeec78	0.37289786
63	0xbf00bbdc	-0.5028665
64	0x3ef7b66f	0.48381373
65	0x3ea27c8c	0.31735647
66	0xbf7b3d5d	-0.9814051
67	0x3f26dd0e	0.6518105
68	0xbf60e55a	-0.8784996
69	0xbf17294b	-0.59047383
70	0xbed04e6f	-0.4068484
71	0xbf3f3be3	-0.74700755
72	0x3e118ec9	0.14214624
73	0xbe496464	-0.19667202
74	0xbf825012	-1.0180686
75	0x3ed76c12	0.4207464
76	0xbf568e93	-0.838113
77	0x3df4b7fc	0.11949155
78	0xbeb0849f	-0.34476182
79	0x3b8fbbc2	0.004386396
80	0xbe30acc2	-0.17253402
81	0x3dab4768	0.08363229
82	0x3f05e4ae	0.5230206
83	0xbe16bf59	-0.14721431
84	0xbf2f1f8d	-0.6840752
85	0xbf3865a2	-0.7203008
86	0x3be4b5ae	0.0069796657
87	0xbe8d0953	-0.27546176
88	0xbeb581ac	-0.35450494
89	0xbf4e3756	-0.80553186
90	0xbfa356ba	-1.2760842
91	0xbf227764	-0.63463426
92	0x3f32dde1	0.6986981
93	0xbf737135	-0.95094615
94	0xbd5df89b	-0.054192167
95	0x3e9c4525	0.30521503

l3.bias f4 [8]
0	0xbe7aae2d	-0.24480505
1	0xbddf0302	-0.108892456
2	0xbe949cfa	-0.29026014
3	0xbd6e0867	-0.05811348
4	0x3da55a15	0.080738224
5	0xbc742497	-0.014901302
6	0xbc3dc1af	-0.011581822
7	0x3e5127a7	0.20425282
