data.pth (torch, 12567 bytes, 6 tensors)

l1.weight f4 [12, 140]
0.36230603 0.7091098 0.29856825 0.0064166733 0.45476958 -0.8944569 -0.57031465 -0.5502211
-0.18302295 0.6271921 -0.4017047 -0.24282219 -0.19353221 -0.20538315 0.13819239 -0.026792737
-0.9080076 0.5039213 -0.03600162 -0.18924357 -0.20811546 0.13191131 -1.1165007 0.29558194
-0.48872712 -0.42123947 -0.79490817 -0.74733704 0.98481375 -0.43548587 0.3571862 0.14200681
0.48995638 -0.17092896 -0.3903208 -0.7015962 0.30111966 1.334563 -0.08253839 -0.4996925
-0.040172923 -0.85105467 0.6273097 -0.21431628 0.68750465 -1.1607308 0.5107198 0.123596095
0.6134471 0.72563463 1.041787 -0.08346616 1.0919083 1.0957906 0.00404745 0.62269205
-0.7238522 -0.38792673 -0.21029465 0.18013276 0.5301265 -0.08521956 0.6542169 -0.6206546
-0.4066056 -0.45895207 0.039729692 0.052767556 0.56419206 -1.2586956 0.196745 -0.0009894378
-0.31892255 0.7792362 0.55322546 -0.29341444 -0.20866524 0.3055976 0.3602406 0.45351648
-0.29719558 -0.21518438 0.6165182 1.4976871 1.5206996 -0.33773267 -0.26417816 0.3555279
0.78079844 -0.61056 -0.23948905 -0.028047983 0.14010064 -0.268072 -0.22932835 -0.06342145
-0.7002115 0.012469535 0.523097 0.09175249 0.51501834 0.35302082 0.4749305 -0.30989826
-0.6408124 -0.12012545 -0.79264647 0.20995504 0.116155535 -0.17253089 -0.7558525 0.048057586
-0.25276 0.5192675 -0.2070333 0.45266545 -0.18773451 -0.41879958 0.45557785 -0.16265409
-0.19504608 -0.11940045 0.09059583 -0.5850045 -0.7395983 0.6812509 -0.45310974 0.42485955
0.016951619 0.29903167 -0.27394667 0.25780335 -0.14241998 -0.23194256 -0.17877512 -0.37966686
-0.29395068 0.6211283 -0.35382536 -0.35006616 0.047862746 -0.54128903 0.31844857 0.016795719
0.40193963 -0.00067882385 0.2693135 -0.52153367 -0.62671214 0.48402435 0.038260892 -0.11381419
-0.488264 -0.42619827 -0.46007803 0.5179011 1.052471 0.43164015 0.31305805 -0.2332094
0.38933286 0.29976514 -0.51230544 -0.30802768 0.04574044 0.40863726 -0.8443903 -0.73398787
1.0394115 -0.034854133 0.5187204 0.17106679 0.53119993 -0.35543472 0.9230111 0.27211013
0.35114256 0.7358277 -0.5155447 0.8083829 -0.6082616 -0.9381071 0.74248326 0.4317667
-0.20938069 -0.5070227 0.4845954 -0.8901816 -0.36363527 -0.49855524 0.8480948 -0.090942875
0.8485591 1.0841717 0.7141137 0.4407202 0.65507364 -0.096776806 -0.18878606 0.2300458
-0.50373006 1.3008686 0.6183574 -0.5948465 0.56871253 -0.26847035 -0.8834574 -0.88907415
0.15333658 0.37142882 -0.1931023 0.22485009 0.44789824 0.77932876 0.5254975 -0.1488012
-0.69183856 -0.10854832 0.3466043 0.3976968 0.5439748 -0.14818761 -0.3585999 -0.58939224
-0.6445658 0.3719676 0.14236027 -0.18624368 0.52659196 0.31838885 -0.06315733 0.1821571
-0.5708555 0.30059263 0.44210324 0.36824277 0.29258984 -0.41745225 0.81828564 -0.85845584
-0.42649594 -0.46961758 0.597421 -0.32449457 0.10657116 0.51839525 -0.32265803 -0.15584823
-0.4932661 -0.20598444 0.21374065 -0.48294175 0.1978251 -0.38819563 0.21705374 -1.1575599
00000000: 2d80 b93e 3888 353f f0dd 983e f542 d23b
00000010: 8fd7 e83e 21fb 64bf 2400 12bf 4adb 0cbf
00000020: 5e6a 3bbe a98f 203f 3dac cdbe 61a6 78be
00000030: 4f2d 46be f64f 52be 4e82 0d3e 717c dbbc
00000040: 3073 68bf fc00 013f 6f76 13bd 11c9 41be
00000050: 381c 55be c213 073e 7fe9 8ebf 8456 973e
00000060: 713a fabe b3ac d7be 1a7f 4bbf 7b51 3fbf
00000070: c11c 7c3f 01f8 debe 1ce1 b63e 3c6a 113e
00000080: 90db fa3e 0008 2fbe 21d8 c7be cf9b 33bf
00000090: 5b2c 9a3e f6d2 aa3f e309 a9bd b2d7 ffbe
000000a0: 5d8c 24bd b8de 59bf 5e97 203f ba75 5bbe
000000b0: 4e00 303f d492 94bf 88be 023f f31f fd3d
000000c0: df0a 1d3f 31c3 393f 4759 853f 4ef0 aabd
000000d0: a7c3 8b3f de42 8c3f 79a0 843b bf68 1f3f
000000e0: 614e 39bf 559e c6be 7b57 57be b974 383e
000000f0: 5fb6 073f 9887 aebd c27a 273f 38e3 1ebf
00000100: 9c2e d0be c4fb eabe 9abb 223d cb22 583d
00000110: e46e 103f f01c a1bf 8577 493e 06b0 81ba
00000120: d149 a3be 067c 473f 2fa0 0d3f 6b3a 96be
00000130: 57ac 55be 4a77 9c3e 7571 b83e 5033 e83e
00000140: 052a 98be 4b59 5cbe 23d4 1d3f 36b4 bf3f
00000150: 49a6 c23f 4ceb acbe 5c42 87be c107 b63e
00000160: 68e2 473f a94d 1cbf 9e3c 75be e2c4 e5bc
00000170: 8b76 0f3e bc40 89be 0dd5 6abe 1be3 81bd
00000180: 1041 33bf 054d 4c3c afe9 053f bbe8 bb3d
00000190: 3ed8 033f 25bf b43e 172a f33e fcaa 9ebe
000001a0: 480c 24bf 5504 f6bd e1ea 4abf 74fe 563e
000001b0: f4e2 ed3d f0ab 30be 8d7f 41bf 08d8 443d
000001c0: c269 81be b7ee 043f 8a00 54be c4c3 e73e
000001d0: 7a3d 40be e66c d6be 8041 e93e cb8e 26be
000001e0: 29ba 47be 3988 f4bd 4e8a b93d dbc2 15bf
000001f0: 5056 3dbf 7566 2e3f 00fe e7be 3187 d93e
00000200: 1fde 8a3c ae1a 993e bd42 8cbe cdfe 833e
00000210: 8bd6 11be 5a82 6dbe d310 37be b263 c2be
00000220: b480 96be 4402 1f3f 9928 b5be df3b b3be
00000230: ba0b 443d eb91 0abf b10b a33e 2d97 893c
00000240: 08cb cd3e 19f3 31ba 76e3 893e 3b83 05bf
00000250: 3570 20bf 0ad2 f73e 74b7 1c3d 6a17 e9bd
00000260: bdfd f9be a936 dabe 598f ebbe 2b95 043f
00000270: 5fb7 863f f0ff dc3e 2549 a03e 72ce 6ebe
00000280: a356 c73e d17a 993e 7326 03bf ceb5 9dbe
00000290: 545a 3b3d e738 d13e f629 58bf a1e6 3bbf
000002a0: 700b 853f 35c3 0ebd dcca 043f 222c 2f3e
000002b0: b8fc 073f 8afb b5be 754a 6c3f 0552 8b3e
000002c0: f5c8 b33e 345f 3c3f bdfa 03bf 2ff2 4e3f
000002d0: 08b7 1bbf c927 70bf 6213 3e3f 8610 dd3e
000002e0: e467 56be 3dcc 01bf e31c f83e f1e2 63bf
000002f0: 672e babe a242 ffbe be1c 593f 4240 babd
00000300: 2b3b 593f 23c6 8a3f 28d0 363f 14a6 e13e
00000310: e8b2 273f eb32 c6bd 2251 41be 2091 6b3e
00000320: 74f4 00bf dd82 a63f ac4c 1e3f dc47 18bf
00000330: 2597 113f f274 89be 442a 62bf 5d9a 63bf
00000340: 4404 1d3e eb2b be3e 9cbc 45be 1a3f 663e
00000350: eb52 e53e 1782 473f 0187 063f 575f 18be
00000360: 551c 31bf 954e debd 1e76 b13e ea9e cb3e
00000370: ef41 0b3f 7ebe 17be 689a b7be 69e2 16bf
00000380: 4402 25bf 8a72 be3e e4c6 113e aab6 3ebe
00000390: bbce 063f dd03 a33e a158 81bd 6487 3a3e
000003a0: 9623 12bf 47e7 993e 5b5b e23e 518a bc3e
000003b0: 56ce 953e 4dbc d5be 2b7b 513f c3c3 5bbf
000003c0: ad5d dabe b771 f0be 95f0 183f 2724 a6be
000003d0: fb41 da3d 8db5 043f 6f33 a5be ae96 1fbe
000003e0: 608d fcbe 96ed 52be d4de 5a3e 2444 f7be
000003f0: aa92 4a3e 94c1 c6be 5643 5e3e ec2a 94bf

l1.bias f4 [12]
0.9406382 1.2221402 1.0420215 1.2459962 0.7063799 0.8190886 0.9179877 0.8973927
0.5750451 0.7549533 0.7163784 0.6811434
00000000: aacd 703f 176f 9c3f f660 853f ce7c 9f3f
00000010: 50d5 343f caaf 513f 3e01 6b3f 87bb 653f
00000020: 2836 133f 9f44 413f 9364 373f 6a5f 2e3f

l2.weight f4 [12, 12]
0.23462477 1.0279996 1.6841928 1.7012993 1.0786871 -0.32556197 1.4911293 -0.6875561
-0.8334034 -0.45617008 -1.5804088 -0.48683837 0.07561955 0.19712698 0.021263264 -0.10702883
0.008470106 -0.24668022 -0.27770734 0.12011506 -0.045145378 -0.1498468 -0.07037527 -0.21749045
-0.17777711 1.7134871 0.3068479 0.57629865 1.6761675 -0.9785956 0.93567604 -0.09583631
-0.26986998 0.53774214 -0.7863252 -0.50273955 -0.24575709 1.0724549 0.55281025 -1.0134923
1.7324938 1.216233 1.5415316 -0.42014197 0.561311 0.6112971 0.95898396 -1.4008049
0.32612607 0.6535273 1.1045451 1.2502764 -0.06902403 0.37487105 0.4007565 -1.1712159
1.2351884 -0.63984233 -0.16045994 1.7759143 -1.7944347 0.36031932 0.31607598 1.0671422
0.7099438 1.0598451 -0.02202839 1.3160259 -0.18277855 1.7889223 1.446825 -1.0506736
1.7153605 0.59679705 1.4556154 0.98618966 -0.5066157 0.051512185 -0.6867767 1.659685
-1.0460987 0.096195936 0.5656025 -1.3978072 0.67295146 -0.34876356 -0.31390047 0.020685032
1.5873886 -0.51004755 -0.38838863 1.8365632 -0.4962215 1.5551242 1.5729932 0.33839977
2.2268379 1.5387 -0.63995475 -1.2615212 -0.19555317 0.616804 1.3558435 -0.3013832
1.6504878 -0.65246004 1.1082697 0.41594514 -0.5555259 -0.97379255 2.4267268 -0.9503566
-0.5330044 1.8267787 0.9423747 0.1967136 1.231395 1.1038189 -0.57353026 1.5382682
-0.40869927 1.0263237 -1.0730189 1.1267891 1.4670593 -0.96035254 0.34325084 -0.6480643
1.1785831 1.3952082 -0.04290049 0.71841955 1.156642 0.29145324 -0.31826353 2.2078457
-1.7177395 0.346581 -0.0770015 1.9722185 -0.03758918 -0.058868542 1.3012124 0.15469667
00000000: 7a41 703e 7e95 833f a193 d73f 2dc4 d93f
00000010: 6b12 8a3f 0fb0 a6be 53dd be3f ad03 30bf
00000020: ed59 55bf 208f e9be d64a cabf e142 f9be
00000030: 6cde 9a3d a8db 493e 4c30 ae3c ee31 dbbd
00000040: 33c6 0a3c bd99 7cbe a82f 8ebe e2fe f53d
00000050: 5cea 38bd 7171 19be e920 90bd d1b5 5ebe
00000060: 340b 36be 8c53 db3f 2b1b 9d3e 4f88 133f
00000070: a88c d63f 3e85 7abf 7788 6f3f d445 c4bd
00000080: 662c 8abe 78a9 093f 9c4c 49bf 8ab3 00bf
00000090: bfa7 7bbe 3446 893f f984 0d3f 1eba 81bf
000000a0: 5bc2 dd3f 86ad 9b3f e850 c53f d91c d7be
000000b0: 14b2 0f3f f77d 1c3f f97f 753f 934d b3bf
000000c0: fff9 a63e 914d 273f bc61 8d3f 0f09 a03f
000000d0: 785c 8dbd 19ef bf3e f52f cd3e 67ea 95bf
000000e0: a71a 9e3f b5cc 23bf 9c4f 24be 2951 e33f
000000f0: 09b0 e5bf c67b b83e b6d4 a13e 1e98 883f
00000100: e0be 353f 01a9 873f e274 b4bc 8973 a83f
00000110: 4d2a 3bbe 68fb e43f 9031 b93f 797c 86bf
00000120: ef90 db3f b1c7 183f 9b51 ba3f ed76 7c3f
00000130: 91b1 01bf 71fe 523d 99d0 2fbf 8f70 d43f
00000140: 90e6 85bf 6002 c53d 53cb 103f 59eb b2bf
00000150: 8c46 2c3f 2391 b2be 90b7 a0be a873 a93c
00000160: 8d2f cb3f 7a92 02bf e0da c6be 8114 eb3f
00000170: bf10 febe 4f0e c73f d757 c93f bc42 ad3e
00000180: 8384 0e40 1ff4 c43f 13d4 23bf 8779 a1bf
00000190: 173f 48be dee6 1d3f 488c ad3f e64e 9abe
000001a0: 2f43 d33f 9f07 27bf c8db 8d3f c3f6 d43e
000001b0: f236 0ebf 784a 79bf 7e4f 1b40 924a 73bf
000001c0: fa72 08bf e2d3 e93f 783f 713f 4a6f 493e
000001d0: 5a9e 9d3f f049 8d3f e1d2 12bf f9e5 c43f
000001e0: 0841 d1be 935e 833f af58 89bf a03a 903f
000001f0: 99c8 bb3f aad9 75bf 93be af3e 8be7 25bf
00000200: d0db 963f 2f96 b23f 6db8 2fbd 58ea 373f
00000210: d80c 943f 5c39 953e 70f3 a2be 584d 0d40
00000220: e3de dbbf 1173 b13e f6b2 9dbd a871 fc3f
00000230: 1df7 19bd 2420 71bd 218e a63f ce68 1e3e

l2.bias f4 [12]
0.6715704 -0.14696975 0.2224741 0.076183446 0.13325721 0.3303195 0.85306853 0.33688554
0.28027686 0.70075417 0.0051565734 0.8442693
00000000: 0aec 2b3f 3d7f 16be 40d0 633e 1106 9c3d
00000010: 9474 083e a31f a93e b362 5a3f 437c ac3e
00000020: 7380 8f3e a064 333f 79f8 a83b 0822 583f

l3.weight f4 [24, 12]
-1.7115605 0.18888177 -0.026560511 0.049731687 0.0043830923 -0.059567746 -1.9170383 0.35235846
0.38348445 -0.54989576 0.56151253 -0.63056964 -0.07426033 -0.17676271 0.48822847 -1.1927536
-0.016032841 0.31131217 -0.031453498 0.2866233 -2.1696472 -1.2654729 0.69843465 0.3216383
0.075252175 0.1997871 0.32187214 0.33797863 0.058229707 -0.99094045 -1.1443596 -0.761535
0.76590693 -0.91094965 -0.068855956 -0.50811785 -0.3825179 0.06654177 -1.2975057 -0.01942238
0.19155209 -0.70966864 -1.2006472 -1.183777 -0.19384727 0.6884464 0.59044147 -1.2903897
-0.5456527 -0.2078389 -0.7989787 0.149068 0.0920222 0.2687675 -0.88052297 -0.2976607
0.17695439 0.051867113 -0.3039537 -0.33096436 0.10376565 -0.20753211 0.43227756 0.16237621
-0.37549496 0.24020636 0.43850645 0.15962006 -2.007283 -0.25987104 -0.10819424 -1.0934883
-2.1008892 0.24088459 -2.1590598 -0.15057081 -0.46399713 0.60428965 -0.10432481 -0.30369058
-0.46417585 0.8927328 -1.3222289 0.47137827 0.67188895 0.11494895 -0.0836448 0.13637918
0.07033219 0.005257453 -1.1061558 -0.22723234 -1.6077684 0.55053437 -0.90158325 -1.181112
0.952823 -0.17995438 -0.5831592 -1.1608838 0.6488061 -1.4112905 -0.81872344 -1.3196651
-0.4542006 0.15514353 -0.7537907 0.19728227 -0.6709711 0.08534117 -0.5394667 -0.13120247
-0.09158181 0.015920019 0.21253642 -0.26398778 0.21102394 -1.3491589 0.05234865 0.66179776
-1.166844 -0.12028026 -0.6799554 1.1838788 -2.0299318 0.73310226 0.17416608 0.621514
-1.000538 -0.23196222 -1.348 -0.024759827 0.48739943 -0.09152841 0.42063874 0.12605894
-0.69073075 -0.2502179 0.7493586 -0.3260111 -0.053742003 -0.6487703 -2.4263017 0.061442446
0.43474808 0.0151743535 -1.3919075 0.7070622 -0.032514196 -1.0863174 -0.016166208 -1.7142929
0.6976976 0.23910543 -1.7809352 -0.37219542 0.5620949 -0.16116154 -0.48585334 -2.1265748
-0.6513609 0.3382949 0.6871069 0.048289992 -0.918627 0.0032138117 -2.4637098 0.6631015
0.92013574 -0.20592904 0.3386889 0.17693643 0.2562088 0.083991736 -0.010576242 -1.5624523
-0.75857776 -0.5785031 -0.33294982 -0.410078 0.38847613 -0.13901837 0.7177624 0.2428636
-0.8156386 0.13921759 -0.44391635 -0.026250286 -0.439877 -1.6896867 0.2656822 -0.23865733
-0.7388651 -0.31724346 -2.7319086 -1.1722325 -0.0076255514 -1.1768984 0.12754454 0.37445635
0.40686527 0.13618656 -1.3223813 0.64047706 0.14956334 0.13681121 0.07756413 -0.4341332
0.080293834 -0.9199862 0.22492968 0.65761745 -0.30488116 -0.115374126 -0.04020872 -0.884964
-0.49154457 0.17018354 -0.29878837 -0.66231483 -0.80635726 -0.53838885 -0.4033222 -0.8596985
-0.318749 -0.44674656 -0.5257772 -0.40253466 0.17866506 0.06827977 0.700243 0.4986364
-0.67722017 0.22234136 -1.3575704 -0.45716456 -0.22771819 -0.1284132 0.413557 -2.1286037
-2.4952462 -0.113886274 -2.3597 0.38063246 0.07911186 -0.28490642 -1.0960166 0.14193417
0.53659755 0.32691133 0.24886994 -1.3914726 0.46894383 -0.0058672368 0.4651432 -0.63073766
00000000: 6a14 dbbf 396a 413e 6e95 d9bc 74b3 4b3d
00000010: 0ba0 8f3b 4ffd 73bd 8361 f5bf 5468 b43e
00000020: 1358 c43e f8c5 0cbf 49bf 0f3f 036d 21bf
00000030: cd15 98bd 4901 35be 15f9 f93e 26ac 98bf
00000040: 4e57 83bc 4f64 9f3e 62d5 00bd 4ac0 923e
00000050: 80db 0ac0 04fb a1bf 9dcc 323f c6ad a43e
00000060: d01d 9a3d fd94 4c3e 6dcc a43e 890b ad3e
00000070: 4682 6e3d 46ae 7dbf 607a 92bf f5f3 42bf
00000080: 7a12 443f ff33 69bf 5a04 8dbd 0314 02bf
00000090: 63d9 c3be 0d47 883d ab14 a6bf af1b 9fbc
000000a0: 3b26 443e d8ac 35bf cfae 99bf 0186 97bf
000000b0: e67f 46be 063e 303f 2c27 173f 7d2b a5bf
000000c0: e5af 0bbf b8d3 54be de89 4cbf 48a5 183e
000000d0: 2376 bc3d e59b 893e f469 61bf fc66 98be
000000e0: 8833 353e 9c72 543d d29f 9bbe 2974 a9be
000000f0: 1683 d43d 4c83 54be 7c53 dd3e f345 263e
00000100: e040 c0be a8f8 753e eb83 e03e 7173 233e
00000110: 5377 00c0 d10d 85be f194 ddbd 6df7 8bbf
00000120: f874 06c0 73aa 763e 092e 0ac0 3c2f 1abe
00000130: 0891 edbe bab2 1a3f 3fa8 d5bd 557d 9bbe
00000140: 75a8 edbe 238a 643f cc3e a9bf 7e58 f13e
00000150: ea00 2c3f 5b6a eb3d f74d abbd fca6 0b3e
00000160: 530a 903d b646 ac3b 8396 8dbf 98af 68be
00000170: 5bcb cdbf d2ef 0c3f 29ce 66bf ae2e 97bf
00000180: 35ec 733f f645 38be ec49 15bf d797 94bf
00000190: 2818 263f 2ba5 b4bf dc97 51bf c9ea a8bf
000001a0: fb8c e8be f2dd 1e3e 6df8 40bf 5d04 4a3e
000001b0: c3c4 2bbf 5ac7 ae3d 7d1a 0abf f159 06be
000001c0: 3e8f bbbd b36a 823c 26a3 593e 6829 87be
000001d0: a916 583e 3db1 acbf 8a6b 563d 946b 293f
000001e0: 255b 95bf 7f55 f6bd 8f11 2ebf 5789 973f
000001f0: 67ea 01c0 97ac 3b3f 9858 323e 8b1b 1f3f
00000200: a111 80bf 8187 6dbe 448b acbf 1fd5 cabc
00000210: 6b8c f93e 3f73 bbbd f65d d73e 9815 013e
00000220: bbd3 30bf 901c 80be f7d5 3f3f edea a6be
00000230: 9320 5cbd cf15 26bf 8748 1bc0 13ab 7b3d
00000240: 4d97 de3e da9d 783c 062a b2bf 0702 353f
00000250: 9b2d 05bd 730c 8bbf ff6e 84bc f36d dbbf
00000260: 4f9c 323f 0ed8 743e aff5 e3bf 6690 bebe
00000270: 74e5 0f3f 8807 25be c5c1 f8be cd19 08c0
00000280: 97bf 26bf fd34 ad3e 3de6 2f3f bacb 453d
00000290: 242b 6bbf d09e 523b 6cad 1dc0 05c1 293f
000002a0: 048e 6b3f 10df 52be a268 ad3e d32e 353e
000002b0: cd2d 833e dc03 ac3d f947 2dbc 70fe c7bf
000002c0: 2732 42bf c718 14bf 6678 aabe bef5 d1be
000002d0: 58e6 c63e d55a 0ebe 47bf 373f 3cb1 783e
000002e0: b1cd 50bf 0e8f 0e3e 0149 e3be d70a d7bc
000002f0: 8f37 e1be a747 d8bf 7f07 883e 9662 74be
00000300: 4326 3dbf bc6d a2be 97d7 2ec0 b70b 96bf
00000310: c3df f9bb 9ba4 96bf 099b 023e beb8 bf3e
00000320: a550 d03e 7d74 0b3e ca43 a9bf 4ef6 233f
00000330: 2227 193e 3d18 0c3e f1d9 9e3d b546 debe
00000340: 1871 a43d 3784 6bbf f753 663e 9e59 283f
00000350: 6219 9cbe 4549 ecbd e6b1 24bd 008d 62bf
00000360: bbab fbbe 9844 2e3e cafa 98be 778d 29bf
00000370: 6e6d 4ebf dad3 09bf 3f80 cebe 3315 5cbf
00000380: 1233 a3be f7bb e4be 5699 06bf 0619 cebe
00000390: f9f3 363e 44d6 8b3d 2043 333f 454d ff3e
000003a0: 4d5e 2dbf 74ad 633e dec4 adbf 7911 eabe
000003b0: f52e 69be c07e 03be bebd d33e 0b3b 08c0
000003c0: 1db2 1fc0 353d e9bd 5305 17c0 42e2 c23e
000003d0: 6605 a23d 41df 91be 464a 8cbf 3157 113e
000003e0: 755e 093f ec60 a73e c3d7 7e3e c61b b2bf
000003f0: 6819 f03e f341 c0bb 4027 ee3e 0678 21bf

l3.bias f4 [24]
0.1085634 0.17462249 -0.08292411 -0.12424654 -0.5048578 -0.2792097 0.22658907 -0.10422772
0.19910283 -0.096473664 0.2582225 -0.2777743 -0.0046829195 0.21719599 0.15818517 -0.35425243
0.34394208 0.21636727 -0.57919174 0.039116938 0.05350714 -0.18618314 0.13416858 0.3319213
00000000: 7d56 de3d 3dd0 323e 1ed4 a9bd f874 febd
00000010: 5c3e 01bf 93f4 8ebe f706 683e 5875 d5bd
00000020: 9de1 4b3e fc93 c5bd bd35 843e 6f38 8ebe
00000030: 2d73 99bb a068 5e3e 4bfb 213e 9360 b5be
00000040: 2d19 b03e 628f 5d3e e945 14bf 1539 203d
00000050: 4e2a 5b3d cba6 3ebe 7d63 093e 97f1 a93e
