data.pth (torch, 5335 bytes, 6 tensors)

l1.weight f4 [12, 39]
00000000: ea7e eabd 07d1 92bd 870a e93c ae6e dc3d
00000010: 9b5c 4bbe 7435 4fbe dd50 063f 7055 fe3e
00000020: ecb1 90be c522 b9be e330 28bd cb88 1f3d
00000030: 01cf b4be 2bee 273f 8c6e 81be 3b59 a5be
00000040: 2085 66be e936 9cbe 0053 23be fc84 b03d
00000050: f055 de3e 9f9e f33e 7877 09be 3bcb 78be
00000060: 295f 463e e6b3 05be 136f d1be 2402 b1bd
00000070: 2571 b139 ea4d 083f 495b edbd b8be bb3e
00000080: 79f0 de3e 5248 dcbd c75d b03a 82ff c23e
00000090: 097d b0bd a9eb 59bd b972 e73e 6a31 fdbc
000000a0: f3e5 9a3e 69e5 903e b95d 74bd 4881 a73e
000000b0: b229 86be 2ad9 053f c30e 59be 06ea b13e
000000c0: 4bf3 85be c57a 773e 8760 553e d857 983e
000000d0: da91 2ebe 4130 793e 6803 9b3e f9f9 a93e
000000e0: 3e0a e03e bf80 2bbe 9822 fabd 33cd ff3e
000000f0: 40de 03bf 851a bdbe 1a82 ac3e 9b9f d03e
00000100: 918b 92be 571f 953d 3202 08be 1a48 913e
00000110: bf82 6bbe c9b7 4dbe d41f b4be d7d0 4f3f
00000120: 4fb9 413b 6aa0 aa3e 5522 1b3e f592 c33e
00000130: d619 673e 32d0 913e 5970 f93d 9d51 893e
00000140: 2ac5 d33e 2b6b 42be 235a 863e ac5a c8bc
00000150: d252 063f 4030 bf3e 95ff a73e 862b ccbe
00000160: 6949 bc3e dc68 8f3e 5dd8 c33e 62b0 ac3e
00000170: 7e40 a83e 9f9c d8be 229d d8be 0e9b d8be
00000180: 4931 18bd 5e61 51be b93e b23e 8d79 3abe
00000190: 4636 4bbe ea23 cf3e f132 3b3e f3c1 48bd
000001a0: e83a 553e 7277 e5bb c560 983e 8c91 84bd
000001b0: a6bb 05bd 03b0 c7bd b5ca 4d3f faaf 91bd
000001c0: 9e85 1bbe 1403 9b3e 95c7 f83e 3d27 393e
000001d0: 3d80 e93e ffa4 7b3e 2bae 103e 3daf 853e
000001e0: 66a8 8dbe a43e dd3e 6000 a53b 78da cf3e
000001f0: e835 acbe f33d 9a3e 3e41 b2be 5ab6 d93e
00000200: 74b8 8f3d a462 e93e 9636 acbe 2d3e e83e
00000210: 89ff ff3e 6fb9 843e 7e0f 143f e1d5 233e
00000220: 135a 3abe 7c3d 7a3e ea71 d2be 5ffd 96be
00000230: 6143 663e e9d2 26be 10bc 2bbe 961d ab3e
00000240: 58b2 113d 0608 ff3d 51e8 82be 3100 46bd
00000250: 60bf c4be 86d1 bc3e e92f 3bbe 0c07 013e
00000260: 8e8d 233e 75c2 4b3e b5f9 303e c27b ba3e
00000270: 86d0 c2bd d9ec adbd 76dd 45bc c361 313c
00000280: 2be9 97be 10a1 c7be efe5 91bb 7495 183f
00000290: f5f9 d0be 81eb 2dbe ee2e 9ebe 5956 06be
000002a0: d2e6 52be 28f8 103f 24ff 0dbe 117b d93e
000002b0: 52fe 8b3e bdb3 c83e d0f9 113e 6b22 833e
000002c0: 643a f53d c934 9c3e 7969 6f3d ed0d a6be
000002d0: 55bf d33d e9c8 eb3d c3e9 44be 650c 653d
000002e0: 9013 97be d6d1 c43e e148 35be d01f f83e
000002f0: e6b0 713d 6ad9 a9bb 9407 493e 1403 f63d
00000300: e52b 9abe 2f07 f0bd f4e4 a33e cf89 bb3e
00000310: 3b5e 4d3f c8ba 1c3f b7e8 17bd e0cd 473e
00000320: c1d2 6d3d d008 703e 3be1 94be bac9 593f
00000330: 10f9 bbbe a833 b83e 4e6e 8d3e 331a 393f
00000340: 50c5 84be dca4 c03e b1c8 fa3e 4bf9 183f
00000350: ff3d fa3e 3d58 1abe 9f02 73be c609 913e
00000360: 30db 37be 8cdf 56be 36e5 243e 98bb 5fbf
00000370: ae92 d2be 770b ca3d 3caf 4f3b 9245 243f
00000380: 614c a4bd 20ce 603d 0190 a3bc 91e2 503e
00000390: aa39 acbe cd13 1c3e 4ea7 f1bd 02cf 413f
000003a0: 5ceb 323f 8e1f 713d 7bdb a73c 85c8 263c
000003b0: 248d d2bd 21db e3bd e27f 2b3e dd11 c23d
000003c0: 37c0 26be 2f0b d1be ae67 9d3d 17b8 133e
000003d0: 86fa 9a3e eaa0 abbd 948d 4c3c b7f8 d1be
000003e0: 77fd 0e3e 332f 833e 9391 153f d92b 843e
000003f0: cdad 86bc cffa 03bd fd62 8cbe 556d 373d
-0.11449988 -0.07168775 0.028447403 0.10763298 -0.19859545 -0.20235234 0.5246714 0.4967456
-0.28260744 -0.3615934 -0.041062247 0.038948815 -0.3531418 0.6559779 -0.25279653 -0.3229464
-0.2251172 -0.30510643 -0.1594963 0.08619115 0.4342494 0.47581956 -0.1342448 -0.24296276
0.19372238 -0.13056907 -0.40905055 -0.086429864 0.0003384437 0.5324389 -0.11589677 0.36668944
0.4354284 -0.107559815 0.0013455682 0.38085562 -0.086175986 -0.05320326 0.45204714 -0.030907352
0.30253562 0.28300026 -0.059659693 0.3271582 -0.26203686 0.5228449 -0.21197037 0.34748858
-0.2616218 0.24167927 0.20837604 0.2975452 -0.17047825 0.24334814 0.30276036 0.33198527
0.43757814 -0.16748331 -0.122136295 0.49961242 -0.51511 -0.36934295 0.3369301 0.4074677
-0.28622106 0.07281368 -0.13282087 0.28375322 -0.22999094 -0.2008964 -0.35180533 0.8117804
0.0029559915 0.3332551 0.15149815 0.38198057 0.2256845 0.28479153 0.12179632 0.26820078
0.41361362 -0.18986194 0.26240644 -0.024457298 0.52470124 0.373415 0.3281218 -0.39876956
0.36774758 0.2800969 0.3825101 0.3372832 0.32861704 -0.42306992 -0.42307383 -0.42305797
-0.037156377 -0.20447299 0.3481348 -0.1821043 -0.19844922 0.40457088 0.18281151 -0.04901309
0.20823252 -0.0070027644 0.2976133 -0.06473073 -0.03264966 -0.097503684 0.8038743 -0.07113643
-0.1518769 0.30275786 0.4858977 0.18081374 0.4560565 0.2457466 0.1412894 0.2611026
-0.2766754 0.43211854 0.005035445 0.40596366 -0.33634877 0.30125389 -0.348154 0.42521936
0.070176035 0.4558307 -0.33635396 0.45359936 0.49999645 0.25922725 0.5783614 0.15999557
-0.18198423 0.24437517 -0.41102535 -0.29490182 0.2248664 -0.16291393 -0.16770959 0.3342101
0.035570472 0.12452702 -0.25567868 -0.048340026 -0.38427258 0.36878604 -0.18279995 0.12600344
0.15971968 0.19898398 0.17282756 0.36422545 -0.09512429 -0.08492441 -0.012076726 0.010826531
-0.2967008 -0.38990068 -0.004452459 0.5960305 -0.40815702 -0.16984369 -0.3089518 -0.13118877
-0.20595863 0.56628656 -0.1386686 0.42476705 0.27342469 0.3919963 0.14255452 0.25612196
0.11974028 0.30509022 0.058450196 -0.324325 0.10339228 0.1151293 -0.19229798 0.055920023
-0.29507113 0.38441342 -0.17703582 0.4846177 0.059006594 -0.0051833885 0.19631797 0.12012306
-0.30111614 -0.1172012 0.32010615 0.36628577 0.8022191 0.61222506 -0.03708717 0.19512129
0.05806232 0.23440862 -0.29078087 0.85073435 -0.36713457 0.3597691 0.27623218 0.723056
-0.25931787 0.37625778 0.4898124 0.5975539 0.48875424 -0.15072723 -0.23731469 0.2832777
-0.17954707 -0.20983714 0.16103062 -0.8739562 -0.41127533 0.09865468 0.0031690141 0.64168656
-0.080223806 0.054884076 -0.019966127 0.20398928 -0.33637744 0.15241928 -0.11799489 0.75706494
0.6989038 0.058867984 0.020490399 0.0101796435 -0.10280827 -0.1112578 0.16748002 0.094760634
-0.16284262 -0.40828845 0.07685791 0.14425693 0.3026926 -0.08380301 0.012484927 -0.41010067
0.13963877 0.25621948 0.58425254 0.25814703 -0.016440297 -0.03222161 -0.27419272 0.044782

l1.bias f4 [12]
00000000: 2e55 103f 4b0f 063f aa9b d83e b736 ac3e
00000010: cd1f 4b3f ad3c 9e3e 22c5 df3e a326 fb3e
00000020: f652 c13e 92bd 623e 2222 c03e 809a 033f
0.56379974 0.52367085 0.42306262 0.33635494 0.793454 0.30905667 0.43705088 0.49052915
0.37758607 0.22142628 0.3752604 0.51407623

l2.weight f4 [12, 12]
00000000: 898a 44bf 6b8b 1d3e 4236 67bf a746 dc3e
00000010: 6c35 f43e 38f8 423f 9156 123f 26c7 a03e
00000020: 4c32 073f a069 11bf 2c5e 523f 4ecb c23d
00000030: 66c2 97be 7bf6 573f 3df5 21be 0d89 503f
00000040: 1507 b1bd 14e5 273f 34e4 6e3f 61de 35be
00000050: d429 2a3f 3146 2f3e ac6f 4d3f 2114 3c3d
00000060: a275 913f d204 8ebe 3b1d 0b3e db4c ccbe
00000070: 7464 083f f364 2abf e1ee 13bf 83a3 0c3f
00000080: d2e1 453b 377a ea3e 3ca3 43be 1120 503f
00000090: e0f0 653c 7ad4 72be cc37 8dbd 7bdc 20be
000000a0: 5fa1 81be c4bb b7bd db5f aebd a0f8 0f3e
000000b0: 2b0e 8ebd 0065 83be dc26 3bbe eab8 2abc
000000c0: 6a85 81bf ed88 f3be 53a8 e7be afcc c8be
000000d0: e34f 6e3e ed2d 28be c534 8f3e b988 603f
000000e0: fd22 e63e 561a 85be 33cf 88be a0a3 c73e
000000f0: 7741 ed3e e280 423f 4c86 f73e ab82 3d3f
00000100: 4572 073f ca21 333f ed4e e93e 0586 d6be
00000110: 4601 553e 7129 813f f2cb 553f 61af 2cbe
00000120: 6703 3f3f f83e d93e c6ff 2a3f b6a6 abbe
00000130: ae29 4b3f b070 d0be df6d dabe b93c 99bc
00000140: 2d3e 26bf 0dc8 323f 7150 61be f519 af3e
00000150: 8e5f 9a3f c577 2a3e 9e57 82be 65d5 aebe
00000160: 9b7a 933f 0a91 713e c06c 9d3e 36fc 143f
00000170: 8d25 a7be 9b28 ef3d 5dfb 4e3e d31b 903e
00000180: cffe b33e ae30 a0bd 8a65 b1be 5fd9 f8be
00000190: d905 763f 6435 533e e3af e63e ecfc 5b3f
000001a0: 9b46 903e fe56 84bf 8dce b9be f179 133f
000001b0: c2e8 9c3d bf11 3f3f 84a2 203f e5bd 723e
000001c0: 6b0d 9ebe 41e6 d43e 21e9 3bbf 956a 58bf
000001d0: 8643 2b3e b765 723f 698f bc3e abc5 a33e
000001e0: 089d 1f3e 6086 fc3d b6b9 3bbd f0bc 9cbe
000001f0: 0bc4 3bbd 99e9 f53d e059 adbd c8dc 2cbd
00000200: d034 85be ee4c 20be e803 05bd 7b26 d13d
00000210: f3fb fbbe 3c7a 6fbe 2ea7 0d3f 0355 953e
00000220: 4709 42bf 4dc1 473e 4928 343d 1dfa 0a3f
00000230: eb0e 413f c945 00be 8672 01be d0b7 813f
-0.7677389 0.15385215 -0.90317166 0.43022653 0.47697008 0.7616 0.5716334 0.31401938
0.5281112 -0.56801796 0.82174945 0.095114335 -0.29640502 0.84360474 -0.15816207 0.8145912
-0.08643929 0.6558392 0.9331696 -0.17760612 0.66470075 0.1711662 0.8024852 0.045917634
1.1364024 -0.27738053 0.1358537 -0.39902386 0.5327828 -0.66560286 -0.57786375 0.54937
0.0030194414 0.45796368 -0.19105238 0.8129893 0.01403448 -0.23713866 -0.06895408 -0.15709107
-0.2531843 -0.0897136 -0.08514377 0.14059687 -0.06936296 -0.25662994 -0.18276542 -0.0104200635
-1.011884 -0.47565404 -0.4524561 -0.3921866 0.23272662 -0.1642377 0.27969947 0.8770862
0.4494857 -0.25996655 -0.2672058 0.38992023 0.46339008 0.7597791 0.48344648 0.7402751
0.52908736 0.69973433 0.45568028 -0.41899124 0.20801267 1.0090772 0.8351432 -0.16863777
0.74614567 0.42430854 0.6679653 -0.33525628 0.79360473 -0.40710974 -0.4266195 -0.018705713
-0.6493862 0.69836503 -0.22003342 0.3419949 1.2060411 0.16647251 -0.25457472 -0.34147182
1.1521791 0.23590484 0.30747032 0.58197343 -0.32645836 0.11677667 0.20213075 0.28146228
0.3515534 -0.07821785 -0.3464778 -0.4860334 0.9610267 0.20625836 0.45056066 0.85932803
0.28178868 -1.0339048 -0.36290398 0.5760794 0.076615825 0.74636453 0.6274798 0.23705252
-0.30869612 0.4158192 -0.734026 -0.8453763 0.16724977 0.94686455 0.36828163 0.31986746
0.15587246 0.123303175 -0.045831405 -0.30612898 -0.045841258 0.12007446 -0.08464408 -0.04220274
-0.26016855 -0.15654346 -0.03247443 0.10212418 -0.4921566 -0.23386472 0.5533322 0.2916642
-0.75795406 0.19507332 0.04398373 0.5428789 0.7541339 -0.12526621 -0.12641343 1.013422

l2.bias f4 [12]
00000000: cfed cc3e e881 b83e e99a b43e 7980 dabd
00000010: 1c6e 003c 3a83 573d 2698 7e3e be5a 263f
00000020: e278 303f b94c 12bc bde7 b1be ec2b b7bd
0.40025184 0.3603661 0.35274437 -0.106690355 0.007838752 0.05261538 0.24862728 0.6498221
0.6893445 -0.008929425 -0.34747115 -0.08943924

l3.weight f4 [5, 12]
00000000: 7fe8 783e 38e9 0a3b e167 e53e 284b 003d
00000010: 7e52 4c3f 3d3e 62bf ae0a 65bf f73d a9be
00000020: 747d 203e f647 99be 79a9 2cbe 9293 ec3e
00000030: 18f6 65bf 9a97 5ebf 317c dc3e 4b92 043e
00000040: ddd5 76bf ce6d 83bd b7ac 213f 0f6b 6e3e
00000050: ccec e53e a8f9 4cbf 9333 17bd a620 cfbe
00000060: 9b89 4d3f 8e16 2c3f 49de 2ebf fd1f 733e
00000070: 5151 84bf ce91 683e 0563 3cbf 609b ab3d
00000080: d784 2e3e 8da8 46bf cf0c 79bd 2fec 7cbf
00000090: e96a d7be cdd7 e03e 2da8 4abf 1692 a33d
000000a0: a872 a1be 1834 ab3e 0e94 49bf 4325 50bf
000000b0: ae4a 50bf a05e 023f 30de 71be 5ba9 013f
000000c0: d29d 5fbf 7c34 d23d 9109 de3b 4088 87be
000000d0: 1178 fabe aa29 bb3e e441 193f 9ab0 03be
000000e0: 2a18 76bf 4ea2 473f e35d 2f3e 3884 4abf
0.2430744 0.0021196138 0.44805816 0.031321675 0.79813373 -0.8837622 -0.8946942 -0.33055088
0.15672857 -0.29937714 -0.16861524 0.46206337 -0.89828634 -0.86950076 0.430635 0.12946431
-0.9642008 -0.06417428 0.63154167 0.23283027 0.44907224 -0.80068445 -0.03691442 -0.40454596
0.80288094 0.67221916 -0.6830793 0.23742671 -1.0337316 0.2271187 -0.7358859 0.08379245
0.17042862 -0.7760094 -0.06080323 -0.9879789 -0.42073753 0.43914643 -0.79162866 0.07986848
-0.31532788 0.33438182 -0.7874154 -0.81306857 -0.8136395 0.50925636 -0.23619914 0.5064904
-0.8735019 0.10263917 0.0067760427 -0.26471138 -0.48919728 0.36555225 0.59866166 -0.12860337
-0.9613062 0.7798203 0.17125659 -0.79108

l3.bias f4 [5]
00000000: 6d31 353e 7e87 363e e222 883e 1eee 4939
00000010: 74c8 23be
0.17694636 0.17825124 0.26589113 0.0001925756 -0.15994436
