data.pth (torch, 5335 bytes, 6 tensors)

l1.weight f4 [12, 39]
000000 94 81 e4 3d bd 71 12 3e ab 04 4f 3e 7c 67 bb be
       0.111575276 0.143012 0.20216624 -0.3660239
000010 d1 a1 8b 3e 85 1c f9 bd 2c 08 4a be 78 66 88 3e
       0.27271894 -0.12163643 -0.1972968 0.26640677
000020 98 5c 66 3e 9c ac f5 be 13 e3 c1 3e 0c 7b df 3d
       0.22496259 -0.47983253 0.37868556 0.10912141
000030 7d 4b 5e 3e eb 23 58 3e 77 12 18 3e 3b b5 21 3f
       0.21708484 0.21107452 0.14850794 0.6316716
000040 00 c7 32 3f de 51 e6 3e a9 34 c4 bb 86 01 21 3d
       0.698349 0.44984335 -0.005987723 0.039308093
000050 84 ea a4 be 27 d8 18 3e 3d 30 85 be 7c 82 4b 3e
       -0.3221017 0.14926206 -0.26013365 0.19873995
000060 8b f1 52 be 11 50 ad bd 17 e8 fb 3c 2a a4 8e 3c
       -0.20599954 -0.08462537 0.030750317 0.017412264
000070 a2 f5 25 3e 8d bf 3a 3e 10 c4 1b be c2 38 b1 3d
       0.16206983 0.18237133 -0.1521151 0.08653404
000080 15 64 c5 be 8c 3c 01 be ec c3 a1 3e 89 e1 bd 3e
       -0.3855292 -0.12620753 0.3159479 0.37086132
000090 e0 1c 5b 3e f4 91 7d 3e 67 e3 0f bd 90 73 59 3e
       0.21397734 0.24762708 -0.035128977 0.2123549
0000a0 bc a8 62 3e d6 e6 df 3d 62 09 d7 3e c8 44 bb 3e
       0.2213468 0.109327 0.41999346 0.36575913
0000b0 3f c8 82 3e ae ad 9a bd e4 60 98 bd 0c ac 90 3e
       0.255434 -0.07552658 -0.074403554 0.2825626
0000c0 cf fd 7a 3e cc c4 c3 3d a8 71 38 3d 70 e8 94 3e
       0.24510883 0.095590204 0.045030266 0.29083586
0000d0 6f 31 96 bd e7 54 99 3e 8d e9 10 3f 95 c3 1b 3f
       -0.073336475 0.29947588 0.5660637 0.6084531
0000e0 0d 6a 2b 3f 6d 2b ed 3e dd 99 a2 3d 45 79 4d be
       0.66958696 0.46322194 0.07939503 -0.20065792
0000f0 9f b1 d4 bd d2 ef bd 3e f7 9d 82 3e 20 b6 ab 3b
       -0.10385441 0.3709703 0.25511143 0.005240217
000100 cb 3c e3 3c dd b8 fb 3e b0 11 3c 3e 8e 49 fc 3d
       0.02773895 0.49164477 0.18366122 0.12318717
000110 f0 4e 84 3d 10 cf a6 3e c7 60 5e be 2a 1c 38 be
       0.06460369 0.3257985 -0.21716605 -0.17979494
000120 a7 62 94 bc 8c ef 9a 3e cc 12 51 3e 7e 3c 02 3e
       -0.018113447 0.30260885 0.20417327 0.12718388
000130 77 16 bb 3d 6a 74 14 bd 31 8f 2f 3d 48 7e 37 bd
       0.09135144 -0.036243834 0.042861167 -0.044798166
000140 40 57 6e be 8a e0 32 be ee 0c 1c be d2 98 59 be
       -0.2327547 -0.17468467 -0.15239307 -0.21249703
000150 91 b4 51 be e0 76 90 3e e8 85 da 3c 65 e8 7d be
       -0.20479037 0.28215694 0.02667518 -0.24795683
000160 27 9d 45 bd 32 59 ed bd 10 87 45 be a3 4f 09 3f
       -0.048245575 -0.11589278 -0.19289804 0.5363714
000170 34 e7 9d bd fe 08 68 3e 41 37 5c 3e 47 6d cf 3e
       -0.07710114 0.2265968 0.21505453 0.4051306
000180 21 d6 ff bd d2 33 1b 3e 10 dd 82 be c7 c5 09 3f
       -0.12492014 0.15156487 -0.25559282 0.5381741
000190 ab fd 87 3c 50 42 03 bd 7b 2e 47 bc 8e d8 de bd
       0.01660045 -0.032045662 -0.012157078 -0.10881148
0001a0 0d b6 35 be 37 34 ed bd 39 b3 f7 3b 93 9e cd 3e
       -0.17745228 -0.11582225 0.007559207 0.40160045
0001b0 65 ad e3 bd 18 31 c5 3e 32 cc d4 be 57 b5 33 3e
       -0.11117057 0.38514018 -0.4156204 0.17549644
0001c0 df be d2 bb dd 09 83 3e f8 f6 9b bd 79 a4 fc 3b
       -0.006431445 0.25593463 -0.07615465 0.0077100364
0001d0 48 f7 d8 3d 6a 2a 25 3e e9 29 93 3e 27 ba 88 3e
       0.1059404 0.16129461 0.28742912 0.26704523
0001e0 cf 30 0f bc f5 5e cb 3e 20 77 f5 3e b5 0d 1a 3d
       -0.008739664 0.39720884 0.47942448 0.03761073
0001f0 f6 53 29 3f 3b f3 c7 3e 7f 83 49 3e 51 b4 bc 3e
       0.6614374 0.39052758 0.19679068 0.3685632
000200 c5 4f a2 3e 9d 08 d2 3e e7 f1 1c 3f 93 f1 b4 3e
       0.31701484 0.41022196 0.61306614 0.35340557
000210 79 97 06 bf 62 8e 06 bf 4b 98 06 bf 59 99 45 3e
       -0.5257488 -0.5256101 -0.5257613 0.19296779
000220 d6 a5 21 3e bf 9b 2a bd 88 67 d9 3e a1 b3 66 3e
       0.15785918 -0.041652437 0.424618 0.2252946
000230 d9 2d 1b 3e 81 78 1a 3e b7 20 09 bc 1a 26 90 3e
       0.15154208 0.15085031 -0.008369616 0.2815407
000240 05 51 39 3e 7b 15 2a 3e db 61 ae 3e 16 90 41 3e
       0.18097313 0.16609757 0.34059033 0.1890262
000250 be fe 49 3e fc 11 16 bf 63 fe 5a 3d 82 14 6c bc
       0.19726083 -0.5862119 0.05346526 -0.014409186
000260 89 1d b8 3e 64 9a 86 3e a0 bb 37 3e 85 46 da 3e
       0.35960034 0.26289666 0.17942667 0.42631927
000270 07 f8 b3 3e c3 3c 90 3d 58 e6 14 3e e2 04 88 3e
       0.35150167 0.070428394 0.14540994 0.26566225
000280 66 ea 92 3c 8c a7 3a 3f 5e a3 4e 3e 2f 20 9a be
       0.017934036 0.72911906 0.20179507 -0.3010268
000290 b8 b9 84 3e 12 35 1e 3f 7b a7 1d 3d 87 30 81 3e
       0.25922942 0.6179973 0.0384898 0.25232336
0002a0 c4 fc ae 3d 35 b1 85 be 86 c9 8c 3c b9 2c 9a be
       0.08544305 -0.2611176 0.017185938 -0.30112246
0002b0 3b 1f 9a be d4 18 9a be 3e 4a ba 3e 7f ff 8a 3e
       -0.30101952 -0.30097067 0.36384767 0.27148053
0002c0 de 36 36 3e e9 cf 8f be 79 8d 94 3e 0f 33 12 3e
       0.17794368 -0.2808831 0.29014185 0.1427729
0002d0 26 fa d3 bd d1 48 97 3e bd 87 cd 3e 3e 83 67 3e
       -0.103504464 0.29547742 0.40142623 0.22608659
0002e0 c6 95 f5 3c 8b 98 32 bc d2 e9 a0 3e 9a b7 82 be
       0.029978644 -0.010900627 0.3142839 -0.25530702
0002f0 86 ef ea 3e cf b3 13 3e 48 5d 80 bb d6 87 51 3e
       0.45885867 0.1442406 -0.00391737 0.20461974
000300 4c 6c 8d 3e 37 19 be 3d a3 9c 8d 3e a0 42 f0 3d
       0.27621686 0.09282153 0.27658567 0.11731458
000310 d6 28 e6 bc 10 43 ea bd ed 2d d9 3e 0a cd b1 be
       -0.028095644 -0.114385724 0.4241785 -0.34726745
000320 e3 4d 17 3f 0c 2e 10 be d0 96 06 3f 18 6b 09 be
       0.5910322 -0.14080065 0.5257387 -0.1341976
000330 f6 35 36 3f ab b9 ca be 5a 97 24 be 13 95 45 be
       0.7117609 -0.39594778 -0.16073361 -0.19295149
000340 b7 13 0d 3f f8 93 66 be 64 e2 b3 be ed e1 b3 be
       0.5510821 -0.22517383 -0.3513366 -0.35133305
000350 b7 a0 b0 be 83 e2 92 3e 60 e4 be 3e a7 8d 57 be
       -0.34497616 0.2868844 0.3728361 -0.2105013
000360 c2 2e 67 3e 34 ad fc 3e 67 e0 88 be 30 58 a1 3c
       0.2257643 0.49350893 -0.26733705 0.019695371
000370 ec 17 c3 3e ff dd 95 3e b4 e6 fd 3e 34 13 1d bd
       0.38104188 0.29270932 0.49590075 -0.03834839
000380 3e d3 98 3e 8d a9 09 3f de ff 04 3f fe de b3 be
       0.29848665 0.5377434 0.5195292 -0.35131067
000390 79 6d 7f 3e 4e 95 b7 bd e4 40 f3 bd 37 c1 37 be
       0.24944104 -0.089640245 -0.11877611 -0.179448
0003a0 d7 0e c6 bc ff 8d 5a be 80 2b 8a 3e b2 56 30 be
       -0.024176998 -0.2134323 0.26986313 -0.17220572
0003b0 59 b2 aa bd 7f 48 72 3e 77 c4 30 bd b1 38 a5 3e
       -0.08334798 0.23660468 -0.043156113 0.32269815
0003c0 fa c6 87 be d6 19 25 3f 5d a5 7f 3d d5 85 eb 3e
       -0.26518995 0.6449255 0.062413562 0.46000543
0003d0 ac 2d b2 be e7 8e 3d bc e2 40 db 3d 35 8a 2e 3f
       -0.3480047 -0.011569715 0.10705735 0.6817964
0003e0 9c a3 79 bd 03 f0 6e 3e f7 60 55 3e b7 eb 26 3e
       -0.060947046 0.23333745 0.2083777 0.16300856
0003f0 d0 5c 95 3e d6 c7 95 3e 3d 01 c2 be e2 12 cf 3e
       0.29172373 0.29254025 -0.3789157 0.40444094

l1.bias f4 [12]
000000 9b f5 19 3f 5c 33 15 3f f8 b8 eb 3e 5a 99 06 3f
       0.6014039 0.58281493 0.46039557 0.52577746
000010 d5 1e 9a 3e 9c e1 b3 3e 8b 7c 2c 3f 45 e0 07 3f
       0.30101648 0.35133064 0.6737754 0.53076583
000020 38 4a 4c 3f 92 59 09 3f 70 1f b8 3e 36 c6 0b 3f
       0.7980075 0.536523 0.35961485 0.5459932

l2.weight f4 [12, 12]
000000 52 04 31 3f f4 39 0e 3f 80 5f b7 be c5 18 b3 be
       0.6914722 0.5555718 -0.35815048 -0.34979835
000010 5d 80 9d 3e c1 d4 4f bf c6 bf 89 bd b7 d5 46 3f
       0.30761996 -0.8118401 -0.06726031 0.7766985
000020 5f f2 36 3f c7 15 4e 3f 23 ec 62 3f 64 ec 47 be
       0.7146358 0.8050198 0.88641566 -0.1952377
000030 69 8d 8e 3e 35 f5 0f 3f e2 c1 cf be 5f ec 02 3f
       0.27842262 0.5623353 -0.40577608 0.51141924
000040 95 63 4f 3e 5e 9d bb be 14 cc cd 3d d9 ed e8 3d
       0.20252831 -0.366435 0.100486904 0.11373491
000050 64 d1 1f be 82 40 c6 be ae bd d4 3e a9 d6 87 be
       -0.1560722 -0.3872109 0.41550964 -0.2653096
000060 6a 6e 99 bd c2 db a8 3d 17 c6 ed bd ae 59 7e 3f
       -0.07491763 0.082450405 -0.11610048 0.9935559
000070 ac 76 c7 3e 93 c3 25 3f 2e 64 50 3f 5f 5d 1d 3f
       0.38957727 0.6475155 0.8140286 0.614706
000080 ac ee f3 be b2 8f 9d be bf 03 09 bf de 2c 0f 3f
       -0.4764303 -0.30773693 -0.5352134 0.55927837
000090 61 ee ea 3e a0 e5 11 3f fb da 48 3e 3d 7f 52 bf
       0.45884994 0.56991005 0.19614784 -0.822254
0000a0 e8 c2 c2 bc db b5 29 3f be ea 22 3f 5f af db 3d
       -0.02377458 0.66293114 0.6363944 0.10726809
0000b0 99 de cc 3e 81 fd 80 3f bd 3d 95 be 6f df ef bd
       0.4001358 1.0077363 -0.29148665 -0.117125385
0000c0 d9 31 5f 3f 7c 46 d1 3e ea e9 24 3f fe 4e 3f 3f
       0.87185436 0.40874088 0.64419425 0.7472991
0000d0 57 c2 d4 be 21 32 4b be 33 d9 08 3f 7f 1b 89 be
       -0.4155452 -0.19843341 0.5345642 -0.2677879
0000e0 cf 16 f6 3e 41 1d 3c bf d3 57 a7 3e 1d 41 16 3f
       0.48064277 -0.7348214 0.32684192 0.58693105
0000f0 4b 23 41 be 54 6f 1f 3e 18 d7 81 be 80 d7 18 3c
       -0.1886112 0.15569812 -0.25359416 0.009328723
000100 80 6e 1d bb 48 46 38 be a4 9a c9 bd e4 25 50 be
       -0.0024022162 -0.1799556 -0.098439485 -0.20326954
000110 2c 57 ef 3d 30 bc f3 bd 10 db 7a bd 36 32 55 3e
       0.116865486 -0.11901128 -0.06124407 0.20819935
000120 8f 57 79 3f c4 82 4f 3f fd c7 5b 3f f3 ea 2a 3e
       0.9739923 0.8105891 0.8585203 0.16691189
000130 42 80 48 bf ed 9b 27 be fc 23 3a 3f c9 50 e1 be
       -0.78320706 -0.16368075 0.7271116 -0.44006947
000140 0f f0 52 3f 62 09 c1 be 06 4f f7 be 2e a0 68 3f
       0.8239755 -0.3770247 -0.48302478 0.90869415
000150 47 71 d6 be 56 54 2f 3f 30 2f 06 bf c4 6b 2d 3f
       -0.418833 0.6848806 -0.5241575 0.6774256
000160 3c e6 37 3f 13 c5 24 3f d0 ee d6 3e b5 c4 50 3f
       0.71835685 0.6436321 0.41979074 0.8155015
000170 e5 22 b6 be 4b 55 2d 3d ad 06 83 3e 3e a5 2b bf
       -0.35573497 0.04231767 0.2559103 -0.67049015
000180 ba 0c ba 3e ab 85 a7 3e e5 a5 c3 3e 03 c3 50 3f
       0.36337835 0.32719168 0.38212505 0.81547564
000190 f0 90 fb bd 43 ae 3f 3f 3f b7 2c 3f 2f 58 60 3e
       -0.12283504 0.7487528 0.6746711 0.2190864
0001a0 83 b6 37 3e 71 4f ba be 0f e6 26 bf 97 b6 61 3f
       0.17940716 -0.36388734 -0.6519479 0.88169235
0001b0 98 ed 01 3f 0c 47 78 3e 0f 9d 1a bf 4d 62 92 3e
       0.50753164 0.24245852 -0.603959 0.28590623
0001c0 bf c0 72 3d b3 d3 b5 be 4a 66 1e be 9b 54 f9 3e
       0.05926585 -0.35513076 -0.15468708 0.4869736
0001d0 d1 2b cb bd 49 1d 25 bf 3b 44 dc 3e 6a 41 fb be
       -0.09920467 -0.6449781 0.43020806 -0.49073344
0001e0 c4 1d da 3c 52 8c 26 3e 87 af ff be fa 75 3a 3e
       0.026625521 0.16264465 -0.49938604 0.18209067
0001f0 77 00 98 3e 7e 86 36 bf 1d c3 70 be aa d5 70 3f
       0.29687855 -0.7129897 -0.2351193 0.94076025
000200 19 f5 7f 3f 21 02 76 3f e7 8e 4f 3f 1e 55 9f be
       0.99983364 0.96097 0.81077427 -0.31119627
000210 03 65 71 bd 5a ca 94 bd a1 0f 43 3e ef 40 e8 bb
       -0.058934223 -0.07265158 0.1904893 -0.007087819
000220 1a af df 3d aa 4d 65 be 5f 50 e0 3d 38 e6 4f 3d
       0.1092207 -0.22392908 0.109528296 0.050756663
000230 ec 68 13 3d de bc ea bd 2d 72 c0 bc ef a1 09 be
       0.035988733 -0.11461805 -0.023491943 -0.13440679

l2.bias f4 [12]
000000 e3 c3 7d 3e b6 59 83 be e5 8b 0c 3e 4b ec e5 3e
       0.24781756 -0.25654382 0.1372524 0.4490684
000010 4b 87 cb 3c aa f4 8b be 80 6c 82 3e 37 60 0c 3e
       0.024844786 -0.273351 0.25473404 0.13708578
000020 f0 1a 22 3e f2 38 ea bd 39 c6 10 3f 46 0f 63 be
       0.15830588 -0.11436643 0.56552464 -0.22173795

l3.weight f4 [5, 12]
000000 b5 2a 2f bf c0 ad 96 be 75 35 02 3f d0 58 a1 3e
       -0.6842454 -0.29429436 0.5086282 0.3151307
000010 bc 89 4f bf dc 79 c5 3d 59 3b 1c bf 5d 31 cf 3e
       -0.8106954 0.096423835 -0.6102806 0.4046735
000020 95 6a a2 3e 8f 68 db be db 53 eb be 30 74 38 3e
       0.3172194 -0.4285321 -0.45962414 0.18013072
000030 df c7 aa bf cc ff 2e bf d1 fe a0 3e 58 57 5b be
       -1.3342246 -0.68359065 0.3144441 -0.21420038
000040 d0 57 30 3f f0 a4 08 bd 97 2b 15 3f 17 f0 0f bf
       0.6888399 -0.03336042 0.5826964 -0.56225723
000050 bc 2f fd 3e e3 b9 bb be aa 73 82 bf 31 21 38 3d
       0.4945048 -0.36665258 -1.0191548 0.04495353
000060 5f d4 2b 3e 39 ad fe be df 73 b1 bf d3 ff ee 3e
       0.16780232 -0.49741533 -1.3863486 0.46679553
000070 a5 75 83 3e cc 63 e8 3d 3d fe 0b 3f b2 e0 5f bf
       0.25675693 0.1134716 0.5468481 -0.8745223
000080 5f 68 0a 3d 2b 6e f7 be b6 2b 5c be bf e8 b6 3d
       0.033790942 -0.4832624 -0.2150105 0.089311115
000090 ae 3f af bd 96 38 17 3f 6c a3 fe be da 81 60 bf
       -0.08557068 0.5907072 -0.49734056 -0.8769814
0000a0 1a 09 e4 3e c0 bb a6 3c 94 ac e8 be b0 5c 62 3e
       0.44538194 0.020353198 -0.45444167 0.2210567
0000b0 89 d7 db be 14 88 d1 3e 09 65 84 3d 3c b6 34 3e
       -0.42937878 0.40924132 0.064645834 0.17647642
0000c0 5b bd 0e 3f b9 35 23 bf 21 77 66 bf 2b f6 63 3e
       0.55757684 -0.6375385 -0.90025526 0.22261874
0000d0 3f 8a 93 bf 80 02 88 3d 27 5e 8c bf 5d 35 02 be
       -1.1526564 0.06641102 -1.0966233 -0.12715669
0000e0 39 bf 64 bf c9 ad 14 bf 5a 71 3e 3f ff 89 27 be
       -0.8935428 -0.58077675 0.7439171 -0.16361235

l3.bias f4 [5]
000000 6c ab ab 3d e6 88 67 3d 45 a0 8f 3c 78 8d af be
       0.083823055 0.05652704 0.017532477 -0.3428762
000010 01 be eb 3e
       0.460434
