data.pth (torch, 11031 bytes, 6 tensors)

l1.weight f4 [10, 139]
0	0x3ee2dbba	0.44308263
1	0x3f339f71	0.70165163
2	0x3ddf27cd	0.10896263
3	0x3f2aa39f	0.66655916
4	0x3f797293	0.9744045
5	0x3f1d2798	0.6138854
6	0xbf311bca	-0.6918303
7	0xbf31ea50	-0.6949816
8	0x3f999716	1.1999233
9	0x3de9a555	0.11408488
10	0x3e6307c9	0.22170939
11	0x3ea442ce	0.32082218
12	0x3f3cfacd	0.7382019
13	0x3ec2b926	0.38031882
14	0xbcfd3534	-0.030909158
15	0xbf80233e	-1.0010755
16	0x3f7b2119	0.9809738
17	0x3d82b05d	0.06381295
18	0x3edc2f3f	0.43004796
19	0xbde71b64	-0.11284521
20	0x3e42c1b5	0.19019206
21	0xbfb32d81	-1.3998262
22	0x3f257e35	0.646457
23	0xbd89f115	-0.06735436
24	0x3f03c816	0.5147718
25	0x3f67e7af	0.90587896
26	0x3f13268f	0.5748071
27	0x3f824311	1.0176717
28	0xbe0d0575	-0.13771613
29	0x3f2a031c	0.66410995
30	0x3f9551f2	1.1665633
31	0x3f1cc148	0.61232424
32	0x3ec2495f	0.37946603
33	0xbf8f0ba3	-1.1175426
34	0xbf5d6807	-0.8648686
35	0x3ea2c126	0.31787986
36	0xbeecdd86	-0.4626276
37	0xbe5ceaea	-0.21573988
38	0xbf696c2b	-0.91180676
39	0xbf193bd9	-0.59856945
40	0x3f6559e7	0.89590305
41	0x3e1977b8	0.14987075
42	0x3ea6b7e2	0.32562166
43	0x3ece07b1	0.40240243
44	0xbf80e5ce	-1.0070131
45	0x3f82e33a	1.0225594
46	0xbf407681	-0.7518082
47	0xbf34cf73	-0.7062904
48	0xbf26b34f	-0.65117353
49	0xbf33206f	-0.69971365
50	0x3f46f40e	0.7771615
51	0xbf11d6ba	-0.5696827
52	0xbf9068c4	-1.1281972
53	0xbee55648	-0.4479239
54	0x3f4a2b28	0.789721
55	0xbf44ce08	-0.7687688
56	0x3dcb461b	0.09925481
57	0x3e815efc	0.2526778
58	0x3f0708cb	0.5274779
59	0x3f632f9c	0.8874452
60	0x3fa31611	1.2741109
61	0x3e86377a	0.262142
62	0xbf947050	-1.1596775
63	0x3eeca7e4	0.4622184
64	0xbda5aca3	-0.080895685
65	0xbf4572fb	-0.7712857
66	0xbf457326	-0.7712883
67	0xbf258167	-0.6465058
68	0xbf40721e	-0.7517413
69	0x3ead95dc	0.33903396
70	0xbd9efdff	-0.0776329
71	0x3ecb9be8	0.39767385
72	0x3f5eb3a1	0.8699284
73	0x3f6d135d	0.9260767
74	0x3e1ea697	0.15493236
75	0x3e8ea85a	0.27862817
76	0x3e9f00de	0.3105535
77	0x3e8b7c53	0.2724329
78	0x3ec8a9a7	0.39191934
79	0x3ee4c226	0.44679374
80	0xbe434d4b	-0.19072454
81	0x3ebdeade	0.37093252
82	0xbf456b7f	-0.7711715
83	0xbf45aff4	-0.7722161
84	0xbc7804d5	-0.015137871
85	0x3e930441	0.28714183
86	0x3f059402	0.52178967
87	0x3f43a9f0	0.7643118
88	0xbf43b6f6	-0.7645105
89	0x3e89a370	0.26882505
90	0xbd56979b	-0.052390676
91	0x3e7d7197	0.24750362
92	0x3e54a8da	0.20767537
93	0x3ea77961	0.32709792
94	0xbdf6a6ce	-0.12043534
95	0xbf45509d	-0.7707613
96	0x3e3318e6	0.17489967
97	0x3f1dad16	0.61592233
98	0xbf458071	-0.7714911
99	0xbf5aa210	-0.8540354
100	0xbf25338a	-0.6453177
101	0x3eff9989	0.49921826
102	0xbe9d3c86	-0.30710238
103	0xbf45823b	-0.7715184
104	0xbf40aacb	-0.7526061
105	0x3f2aa7f9	0.66662556
106	0x3ebfbabc	0.37447155
107	0x3ea1b486	0.3158304
108	0x3cdeeed1	0.027213486
109	0xbf5a58c7	-0.85291713
110	0x3e865e36	0.26243752
111	0x3e8f2000	0.27954102
112	0x3e834480	0.256382
113	0xbe1c72d5	-0.1527818
114	0x3e67cc3c	0.22636503
115	0xbe3048f7	-0.17215334
116	0x39e20adc	0.0004311417
117	0xbe0c5961	-0.1370597
118	0x3f81c774	1.0138993
119	0xbe3f2dfd	-0.18669887
120	0xbdc58d5f	-0.09646105
121	0x3eec9e5c	0.4621457
122	0xbf3d79bf	-0.74013895
123	0xbf429c0d	-0.76019365
124	0x3ea7e5a9	0.32792404
125	0x3c399ab7	0.011328391
126	0x3f5347bd	0.8253134
127	0x3ed0b243	0.40761003
128	0x3f37a743	0.71739596
129	0xbdfaf704	-0.12254146
130	0xbe4dd5aa	-0.20101038
131	0xbe15e3be	-0.14637658
132	0x3ed160ba	0.4089411
133	0xbe0175b5	-0.12642558
134	0x3f7572fd	0.95878583
135	0xbe99f815	-0.30072084
136	0x3f20471f	0.6260852
137	0x3ed94244	0.4243337
138	0xbdee1bd7	-0.11626404
139	0x3ea3220c	0.31861913
140	0xbe8c4795	-0.27398363
141	0x3ebeafff	0.3724365
142	0xbdc5d1cc	-0.09659156
143	0xbf50c1a8	-0.81545496
144	0xbf35c761	-0.71007353
145	0xbf66ef9a	-0.9020935
146	0xbf09fa89	-0.5389791
147	0x3e92dcdd	0.2868413
148	0xbdfb02d9	-0.122564025
149	0x3de57ae0	0.11205077
150	0xbce174b8	-0.027521476
151	0xbef400ba	-0.47656804
152	0x3e176124	0.1478315
153	0xbf1e94b7	-0.6194567
154	0x3f533fb0	0.82519054
155	0xbf086391	-0.53276926
156	0x3f2481e0	0.64260674
157	0x3d9d220a	0.07672508
158	0x3e647485	0.22310074
159	0x3e91c3c1	0.2846966
160	0xbf678588	-0.9043813
161	0x3f5e2eef	0.86790365
162	0x3f950b37	1.1644047
163	0x3ee03026	0.43786734
164	0x3b388f4d	0.0028161586
165	0xbf0efb38	-0.5585208
166	0xbda280e1	-0.07934738
167	0x3ef0e501	0.47049716
168	0x3ddf2fdd	0.10897801
169	0x3eeef165	0.46668544
170	0x3f180938	0.59389067
171	0x3e0b4bb8	0.13603103
172	0x3f805aad	1.0027672
173	0xbed77cbe	-0.42087358
174	0xbe8d583b	-0.27606377
175	0x3f6ecc07	0.9328007
176	0x3dc47945	0.09593443
177	0x3f61ba84	0.88175225
178	0x3e089cc2	0.13341048
179	0xbd49ea65	-0.0492958
180	0xbd8e14d2	-0.06937565
181	0x3ea74afe	0.32674402
182	0x3e9dfdd7	0.30857727
183	0xbf63a100	-0.8891754
184	0xbf314e73	-0.6926033
185	0xbeb968e4	-0.36212838
186	0x3f16c47e	0.58893573
187	0x3e3b50ba	0.18292513
188	0x3f7ad31c	0.9797838
189	0x3e269921	0.16269352
190	0x3f6f17e3	0.93395823
191	0x3f8a0756	1.0783489
192	0x3f657805	0.8963626
193	0xbc12abd8	-0.008952104
194	0x3f3a87fd	0.7286375
195	0xbc772c90	-0.015086308
196	0x3db41f74	0.08795062
197	0x3f1e0650	0.6172838
198	0xbedb9034	-0.42883456
199	0x3f84ef50	1.0385532
200	0xbf36be24	-0.7138388
201	0xbfa972fc	-1.3238215
202	0x3f09fda3	0.53902644
203	0x3da6d14c	0.08145389
204	0xbec8113f	-0.39075658
205	0xbeb671eb	-0.35633788
206	0x3f153a47	0.5829205
207	0x3f40ae78	0.7526622
208	0xbdc1e774	-0.09467974
209	0x3e156221	0.14588214
210	0x3ecce862	0.40021044
211	0xbc20d192	-0.00981559
212	0x3e8b224a	0.27174598
213	0xbddd7fba	-0.108153775
214	0x3eb5e4fc	0.35526264
215	0xbe19acb1	-0.15007283
216	0x3f7c00fc	0.98439
217	0x3f7e64e1	0.9937268
218	0x3f150f9c	0.58226943
219	0xbe8b6681	-0.27226642
220	0x3f1126c9	0.56699806
221	0xbf67bae9	-0.9051958
222	0xbf67c4db	-0.9053475
223	0x3eb2a08a	0.34888107
224	0x3eac74f5	0.3368298
225	0xbe91cb4d	-0.2847542
226	0xbf35ad91	-0.70967966
227	0xbe9210b9	-0.28528383
228	0xbe3b2a1d	-0.18277784
229	0x3e91fedc	0.28514755
230	0xbe6404dd	-0.2226748
231	0x3eb180ed	0.34668675
232	0x3ee4604f	0.44604728
233	0xbf14cdfa	-0.58126795
234	0x3f087f71	0.5331946
235	0xbd98aaea	-0.07454474
236	0xbf67b41f	-0.9050922
237	0xbebc28c8	-0.36749864
238	0xbe8675f3	-0.26261863
239	0xbda90b12	-0.082540646
240	0xbe1eabca	-0.1549522
241	0xbee101cb	-0.4394668
242	0x3ec8666e	0.39140648
243	0x3f057386	0.521294
244	0x3e006839	0.12539758
245	0xbe50e277	-0.2039889
246	0xbdd48e73	-0.103787325
247	0x3de9fa68	0.11424714
248	0xbebb5d8f	-0.36594817
249	0x3e8a2ec7	0.26988813
250	0x3eab07ed	0.33404484
251	0x3f9ba38c	1.2159286
252	0x3f3b0b4a	0.730641
253	0xbf8e93cc	-1.1138854
254	0xbf01330e	-0.5046853
255	0x3d27fd6c	0.041013166

l1.bias f4 [10]
0	0x3f45779e	0.77135646
1	0x3f67b6d1	0.9051333
2	0x3f2503de	0.64459026
3	0x3f5864ac	0.84528613
4	0x3f04405d	0.5166071
5	0x3f3b3951	0.7313433
6	0x3f10c148	0.56544924
7	0x3fa040e2	1.2519801
8	0x3fb01c9b	1.375873
9	0x3f8cce5e	1.1000478

l2.weight f4 [10, 10]
0	0x3f00d93a	0.5033146
1	0xbf831cbc	-1.0243144
2	0xbf9c9b2b	-1.2234854
3	0x3eb0b65f	0.34514138
4	0x3fa7bed1	1.3105108
5	0x3f67b6eb	0.90513486
6	0xbf287591	-0.6580439
7	0x3f9cae14	1.2240624
8	0x3ff1f176	1.8901813
9	0xbd52a444	-0.051426187
10	0xc007574c	-2.1147032
11	0x40097650	2.1478462
12	0x3ee12cf3	0.43979606
13	0x3f1c861d	0.6114214
14	0x3fc1c03b	1.5136789
15	0xbfaa9302	-1.3326113
16	0x3fa5c3d5	1.2950388
17	0x3f8942fd	1.0723568
18	0x3f4310f7	0.7619776
19	0xbec964bc	-0.39334667
20	0xbf457f2e	-0.77147186
21	0xbf45f7c2	-0.77331173
22	0x3ec7855e	0.3896894
23	0x401d0230	2.4532585
24	0xbdc05033	-0.09390297
25	0xbf97c443	-1.1856769
26	0x3fb80355	1.4376017
27	0x4003aa04	2.057252
28	0x3f2fca22	0.68667805
29	0x3d9b7ca7	0.07592135
30	0x3e62701a	0.22113076
31	0xbf30f95d	-0.691305
32	0xbe9054e8	-0.28189778
33	0x3f5cfcd5	0.8632329
34	0x40052bd7	2.0808008
35	0xbf9eab07	-1.2395943
36	0x3f2089d1	0.6271029
37	0xbfefe515	-1.8741785
38	0x3ff43eeb	1.9081701
39	0x402866d8	2.631277
40	0x3f318849	0.6934858
41	0xbf7373a5	-0.95098335
42	0xbf219533	-0.63118285
43	0xbf9e632f	-1.2374018
44	0x3fc205ca	1.5158017
45	0x3faf8653	1.3712867
46	0xbe568ffa	-0.2095336
47	0xbf0453b3	-0.51690215
48	0x3feb8b8f	1.8401965
49	0x3f414a24	0.75503755
50	0x4028d9d8	2.6382961
51	0x3f86f54c	1.0543609
52	0x4040c80a	3.0122094
53	0x3fda4671	1.7052747
54	0x3ff51302	1.9146426
55	0x3fd5eb41	1.6712419
56	0x3f0573f4	0.52130055
57	0xbfa5e03d	-1.2959057
58	0x3dadf0a8	0.08493167
59	0xbf4717aa	-0.77770483
60	0x3ea95581	0.33073047
61	0x3f09848d	0.5371788
62	0xbf687ec5	-0.90818435
63	0x3f93b145	1.1538473
64	0x3ecf330e	0.4046864
65	0x3f41a31b	0.75639504
66	0x3fe515eb	1.7897314
67	0x3fd51e7b	1.6649927
68	0x3f3ca5b3	0.73690337
69	0xc0005740	-2.0053253
70	0x3e282eeb	0.16424148
71	0xbe5c0edd	-0.21490045
72	0xbd6d1b31	-0.05788726
73	0xbeac6cb8	-0.33676696
74	0x3e938adf	0.28816888
75	0xbe1d653e	-0.15370652
76	0xbd29d788	-0.041465312
77	0x3e84b9ec	0.25923097
78	0xbe5d1612	-0.2159045
79	0x3dc690e3	0.09695604
80	0x3f9f3a09	1.2439586
81	0x3fdfb483	1.7476963
82	0xbf984928	-1.1897326
83	0xbfb5589a	-1.4167664
84	0xbf64307a	-0.8913647
85	0x3fd9f977	1.7029256
86	0x3f8ba6a6	1.0910232
87	0xbf280c89	-0.6564413
88	0x3f608a58	0.87711096
89	0x3fed55e6	1.8541839
90	0x3fb13998	1.3845701
91	0x3f8d893b	1.1057504
92	0x3fb89582	1.4420626
93	0x3e92ba78	0.2865789
94	0xc00f617c	-2.240325
95	0x3f1f8ada	0.62321246
96	0xbfe4ce18	-1.7875395
97	0x3fd1045c	1.6329455
98	0x3f18efd1	0.5974093
99	0x40078736	2.1176276

l2.bias f4 [10]
0	0x3e8f5996	0.27998036
1	0x3f028a39	0.5099216
2	0x3f6739e5	0.90322715
3	0x3f21e2fe	0.6323699
4	0x3e0e70db	0.13910238
5	0xbeb79755	-0.35857645
6	0x3eaab45b	0.33340725
7	0xbe1ca653	-0.15297823
8	0x3f851629	1.0397388
9	0x3fa66a7f	1.300125

l3.weight f4 [24, 10]
0	0xbf478ccc	-0.77949214
1	0xbeb1e179	-0.34742334
2	0xc0195682	-2.395905
3	0xc02aeaca	-2.6705804
4	0xbf27d618	-0.65561056
5	0x3f0c7bc2	0.5487634
6	0x3e39ebc5	0.18156345
7	0x3e50b9c3	0.20383362
8	0xbe10c176	-0.141363
9	0x3f08d33c	0.5344732
10	0xbf873949	-1.0564357
11	0x3f99dcd3	1.2020515
12	0x3f7ff1ac	0.99978137
13	0xbf9caf54	-1.2241006
14	0xc00ea48e	-2.2287936
15	0xbe565e0a	-0.2093431
16	0x3e3d68fd	0.18497081
17	0xbe92bf1d	-0.28661433
18	0xc00f40a1	-2.2383196
19	0xbe8e486b	-0.27789626
20	0x3f2c8a60	0.67398643
21	0xc00e1874	-2.2202425
22	0xbf7210fc	-0.94557166
23	0xc0067c92	-2.1013532
24	0x3ed3bdc2	0.4135571
25	0x3cf913c5	0.030404935
26	0x3e8b5869	0.2721589
27	0xbe79a12e	-0.24377891
28	0x3e363f40	0.17797565
29	0x3df20e0d	0.11819086
30	0xbfaef5f1	-1.3668805
31	0xbffdd001	-1.9829103
32	0x3eaa3af5	0.33248106
33	0x3eaa7d11	0.33298543
34	0xbfcce1c4	-1.6006398
35	0x3e4131b9	0.18866624
36	0xbff6706d	-1.925306
37	0x3e55942c	0.20857304
38	0xbfbaa19f	-1.4580573
39	0x3f31a206	0.69387853
40	0x3dc6f169	0.09714014
41	0xbd8676c0	-0.065656185
42	0xbf7e0f7e	-0.9924239
43	0xbf156d52	-0.58369935
44	0x3dc5ea6b	0.09663852
45	0x3eea3736	0.45745248
46	0xbe69a19b	-0.22815554
47	0x3e0d16af	0.13778184
48	0xbe9ade33	-0.3024765
49	0xbefb5dd2	-0.49095017
50	0xbfcdda2b	-1.6082205
51	0x3edb106f	0.42785975
52	0x3edff7d0	0.43743753
53	0x3f249046	0.64282644
54	0xc0039ea6	-2.0565581
55	0x3e49d307	0.19709407
56	0x3e0cdc5b	0.13755934
57	0xbe9e3908	-0.30902886
58	0xbee08c2a	-0.43856937
59	0xc002ccc6	-2.0437484
60	0x3f2723c9	0.6528898
61	0xbec3c13c	-0.38233364
62	0xc00b4d13	-2.1765792
63	0x3ed990c4	0.4249326
64	0x3f5706bc	0.8399465
65	0xbd27b9c1	-0.040948633
66	0xbee401e2	-0.44532686
67	0x3e659b75	0.22422583
68	0x3e833361	0.25625136
69	0xbfa34236	-1.2754581
70	0x3efccf63	0.49376974
71	0xbec4b737	-0.38421032
72	0x3e46c66c	0.1941163
73	0xbef3577c	-0.47527683
74	0xbe55fd96	-0.20897517
75	0x3e88c7cc	0.26714933
76	0xbdae1648	-0.085003436
77	0xbe8837fb	-0.2660521
78	0xc036fa0a	-2.8590112
79	0xbdc93f7d	-0.098265626
80	0xc006581f	-2.0991285
81	0xbf83f414	-1.0308862
82	0xbff63656	-1.9235332
83	0x3ef2a5d9	0.47392157
84	0xbd0d959b	-0.034566503
85	0x3e9e44a3	0.3091174
86	0xc01c1293	-2.4386337
87	0x3daecf61	0.08535648
88	0xbddc534d	-0.10758076
89	0x3ecd8b75	0.4014546
90	0x3ec344e7	0.38138506
91	0xbfdaa566	-1.7081726
92	0x3ef9f7cc	0.48821867
93	0x3e4ace19	0.19805183
94	0xbdd768c6	-0.10518031
95	0xbeea3823	-0.45745954
96	0xbf2339b7	-0.6375994
97	0x3e95a118	0.29224467
98	0xbe8809d0	-0.26569986
99	0x3e9f789d	0.31146708
100	0x3ef844d0	0.4849
101	0x3f31cedf	0.69456285
102	0x3f0f4442	0.5596353
103	0x3ea884c9	0.32913807
104	0xbe7725e3	-0.24135546
105	0xbf7245f7	-0.9463801
106	0x3f3efb7c	0.74602485
107	0x3e23f3c9	0.16010965
108	0xbfc212b0	-1.5161953
109	0xc00cdf21	-2.2011187
110	0x3c9c1678	0.019053683
111	0x3f858060	1.0429802
112	0x3ac919aa	0.0015342731
113	0xbf8e8e1a	-1.1137116
114	0xbfef3e6e	-1.8690927
115	0xbf8ac0ec	-1.0840125
116	0xbe0402f4	-0.12891752
117	0xbe28bd16	-0.1647838
118	0x3e387219	0.18012275
119	0x3f1e2eaa	0.61789954
120	0x3eb6c4e7	0.356971
121	0xbfcbbd07	-1.5917062
122	0xc01d8d69	-2.461756
123	0x3ee464f6	0.44608277
124	0x3ee78edb	0.45226178
125	0xbf3dd7bb	-0.74157304
126	0xc0087936	-2.1323981
127	0xbe68d4f6	-0.22737488
128	0x3f335b89	0.70061547
129	0x3f0a54fe	0.5403594
130	0xbd02c615	-0.031927187
131	0xbe096c70	-0.13420272
132	0x3f2b2c33	0.6686432
133	0x3f3bf8d8	0.7342658
134	0xbece542e	-0.402986
135	0xc037e705	-2.8734753
136	0xbfec0234	-1.8438172
137	0xbdfd6ca7	-0.123742394
138	0xbe87fd4e	-0.26560444
139	0x3f42f925	0.76161414
140	0xbe481199	-0.19537963
141	0x3f8e4bf7	1.1116933
142	0xbecab3e4	-0.3959037
143	0x3f290973	0.66030043
144	0x3dba7d17	0.0910589
145	0xbf89695e	-1.073528
146	0xbf0d4614	-0.55185056
147	0x3e7ba47d	0.24574466
148	0x3eb204f0	0.34769392
149	0xbf83817c	-1.027389
150	0xbf6bdd50	-0.9213457
151	0xc0100357	-2.2502038
152	0xbfe6fa8c	-1.8045211
153	0xc0092d1b	-2.143378
154	0x3ea3464a	0.31889564
155	0x3e91628d	0.283955
156	0xc025c6a0	-2.590248
157	0x3d459669	0.048239145
158	0x3f1993d5	0.599912
159	0x3f5d63a8	0.8648019
160	0xbf51c3be	-0.81939304
161	0xbda044c5	-0.07825617
162	0xbf4d3164	-0.8015349
163	0xbed0568d	-0.40691033
164	0xbef03c9d	-0.46921244
165	0xbe6763d0	-0.22596669
166	0x3ec09e68	0.37620854
167	0xbe917160	-0.2840681
168	0x3f6658d4	0.8997929
169	0xbec16192	-0.37769753
170	0x3f1356b0	0.5755415
171	0xbef1ada8	-0.47202802
172	0x3e965ae1	0.2936621
173	0xbfe5213b	-1.7900766
174	0x3f5d145d	0.86359197
175	0xc01d2fe2	-2.4560475
176	0x3ef13e31	0.4711776
177	0x3e420d9f	0.18950509
178	0x3e635e35	0.22203906
179	0xbdf02f2a	-0.11727746
180	0xbf0950a4	-0.5363867
181	0xbf141136	-0.5783876
182	0xbeb9c0e5	-0.3627998
183	0xbee2b5f8	-0.44279456
184	0xbf5c9ac2	-0.8617364
185	0xbf4a6814	-0.7906506
186	0xbf5fa8fd	-0.8736723
187	0x3e63a2d0	0.22230077
188	0xbe2bdec0	-0.16784191
189	0xbf420bc1	-0.75799185
190	0xbf90a794	-1.1301141
191	0x3eb528cf	0.35382697
192	0x3e3c6fb5	0.18401988
193	0xbfdb194d	-1.7117096
194	0xbfe62126	-1.7978866
195	0x3ef78436	0.48343056
196	0x3e9d47d5	0.30718866
197	0x3e945368	0.28969884
198	0xbdcb2fde	-0.09921239
199	0xbf03fc3a	-0.5155674
200	0xbfe1b6eb	-1.7633947
201	0x3efcd51b	0.49381337
202	0xbf795a1a	-0.9740311
203	0x3e38948a	0.18025413
204	0xbef58c36	-0.47958535
205	0x3f0262e1	0.5093213
206	0xbf9b6419	-1.2139922
207	0xbe3a8c46	-0.18217573
208	0xbe670512	-0.22560528
209	0xbf012e56	-0.5046133
210	0x3f118415	0.56842166
211	0xbe984956	-0.2974345
212	0x3f453124	0.7702811
213	0xc02003b2	-2.5002255
214	0xbfddd681	-1.7331086
215	0xbe94dbed	-0.2907404
216	0x3f4189be	0.756008
217	0x3e878d78	0.2647512
218	0xbef0f0d6	-0.47058743
219	0xbf1392a2	-0.5764562
220	0xbfc03aa1	-1.5017892
221	0x3f09727e	0.53690326
222	0x3efb0647	0.49028227
223	0x3ede74e2	0.4344855
224	0xbff40e36	-1.9066837
225	0x3e3a4856	0.18191656
226	0xbfa61c73	-1.2977432
227	0x3e403a94	0.18772346
228	0xc00ffc1c	-2.2497625
229	0xbe34acaf	-0.17643999
230	0x3cbc4007	0.02297975
231	0xbf2bb3cf	-0.6707124
232	0x3e832701	0.25615695
233	0x3f6d0f4b	0.9260146
234	0x3d9f19ba	0.07768579
235	0x3e8c6bad	0.274259
236	0xbf536a68	-0.8258424
237	0xbd5d9a5e	-0.054102294
238	0xbf48c3f1	-0.7842398
239	0xbfc11d8a	-1.508714

l3.bias f4 [24]
0	0xbe789326	-0.24274883
1	0x3e7b1df4	0.24523145
2	0x3d95ff4a	0.07324083
3	0x3e275aae	0.16343185
4	0xbea2a858	-0.3176906
5	0x3dff108b	0.12454327
6	0xbf1852d9	-0.59501415
7	0x3cfb7922	0.030697409
8	0x3ce31750	0.027721077
9	0xbd58545f	-0.052814838
10	0xbe9a7308	-0.30165887
11	0x3ee5e112	0.44898278
12	0x3ea94171	0.3305774
13	0x3e920a09	0.2852328
14	0xbe313f64	-0.17309338
15	0x3e8139bb	0.25239357
16	0x3e5ecf50	0.21758771
17	0x3ce792e3	0.028268283
18	0xbed83a14	-0.4223181
19	0xbe87014a	-0.2636817
20	0xbeabb4bc	-0.33536327
21	0x3eb900da	0.36133462
22	0x3e85aa9b	0.26106724
23	0xbe59a5f7	-0.21254717
