data.pth (torch, 7831 bytes, 6 tensors)

l1.weight f4 [10, 88]
0.19557908 -0.26038682 0.34281176 -0.030467985 -0.48206574 -0.5291616 0.10170345 0.13233413
0.30150625 -0.39724913 0.13368537 0.4200548 0.013951458 0.23389046 -0.6710616 0.35363403
0.81571907 0.28696454 0.41414812 -0.8959204 -0.7945206 0.2074616 0.4004125 0.16084726
-0.21261722 -0.10196762 -0.67112786 -0.6094054 -0.1535118 0.42194954 0.42629337 0.15281476
0.418877 0.18503252 0.2978618 0.28636083 0.2885182 0.41897735 -0.29356864 -0.5796738
0.115426406 -0.55659354 -0.5490729 0.18340565 -0.20179029 0.07918595 0.25575376 0.4513069
-0.111581065 -0.13138005 0.002080146 0.20966747 -0.09944961 -0.08899439 0.2724604 0.11891576
0.03155711 0.21086213 0.35163543 0.02513484 0.4293204 -0.55891633 0.74492705 0.9516201
-0.34275097 0.010954506 0.02400823 0.18375799 0.027752742 0.24024358 0.47570747 0.24853337
-0.22550574 -0.87156284 -0.51732504 0.09076856 0.3366708 -0.28191575 -0.23723084 -0.04269899
-0.38731354 -0.01839568 0.17092606 0.1836961 0.56865793 -0.20347524 0.23398773 0.20516299
0.15894428 0.07107153 0.15400401 -0.697581 -0.2666102 0.37988815 0.07149867 -0.244549
0.29552558 -0.3832882 0.18881407 0.0641249 -0.31958452 0.4234057 0.72082525 0.12973487
0.7131301 -0.18110621 -0.0390696 -0.73626226 -0.5147554 0.5665649 0.18562111 0.016675761
0.41179907 -0.30094534 0.7616824 0.33941403 0.21914425 0.018142808 0.15640043 -0.21136281
0.20722666 0.33928806 0.09853423 0.06238965 -0.049347404 -0.2178175 -0.16905671 0.46420568
0.18306762 0.22904706 0.29170898 0.34561068 -0.19423185 0.03412876 -0.13788952 0.25060594
-0.06704666 0.305831 -0.1041018 -0.10016102 -0.33346167 -0.2897313 0.3114392 0.24229881
-0.131374 -0.1606207 -0.1307718 0.72433835 0.44068125 0.2419824 -0.3991201 -0.43718106
0.40924585 0.67995304 -0.25409004 -0.47266543 -0.60772705 0.65563816 0.4989238 -0.050550263
0.017889462 -0.26423392 -0.17640434 0.335232 0.29030368 0.2825586 0.22822599 0.13331074
0.45107272 -0.17717828 -0.38537654 0.094643824 0.08008245 0.30462828 0.123654604 -0.060852647
0.19466168 0.5058652 0.30909085 -0.60143805 -0.27383944 0.4540111 -0.1196996 -0.14112271
0.008410253 0.4417231 0.1263125 -0.12128219 0.36233833 -0.1592659 0.54413104 0.0615505
-0.48700908 -0.24984722 -0.02204817 0.24727386 0.39251345 -0.44109163 -0.60141665 0.10527907
-0.09823434 0.045184877 0.4785123 0.03641726 0.4453471 -0.52095175 -0.6012133 0.33750126
-0.5942158 -0.60149336 -0.5314736 -0.052364722 0.0017414417 0.09144472 0.2190167 0.36585513
0.0206642 -0.10718447 -0.039796013 0.21674104 0.25854838 0.4017553 -0.10056126 -0.069046386
0.1861129 0.15263447 -0.1488268 0.1186562 0.3943038 0.37346464 -0.177199 -0.052008018
0.33728388 -0.44298962 0.12919913 -0.37673613 0.42000806 0.075860314 -0.6058167 -0.4643573
0.31149703 -0.5173123 0.15738411 0.11268102 -0.060811255 -0.37538984 0.5810426 0.028569035
-0.16038314 0.92912936 0.21692236 0.06514803 -0.15569077 0.25994122 0.2800642 0.2336663
00000000: e245 483e 6c51 85be 0685 af3e ff97 f9bc
00000010: 52d1 f6be 2277 07bf e649 d03d 9982 073e
00000020: 075f 9a3e 3d64 cbbe d1e4 083e 6c11 d73e
00000030: a894 643c fb80 6f3e b1ca 2bbf 850f b53e
00000040: f7d2 503f 04ed 923e 390b d43e 0a5b 65bf
00000050: b465 4bbf d070 543e de02 cd3e 25b5 243e
00000060: 54b8 59be 66d4 d0bd 09cf 2bbf fe01 1cbf
00000070: 3332 1dbe c509 d83e 2043 da3e 797b 1c3e
00000080: 0c77 d63e 2a79 3d3e 5881 983e e39d 923e
00000090: a8b8 933e 3384 d63e a14e 96be 8165 14bf
000000a0: ae64 ec3d ea7c 0ebf 0b90 0cbf b1ce 3b3e
000000b0: 1da2 4ebe 3e2c a23d 28f2 823e b311 e73e
000000c0: 9d84 e4bd 7e88 06be 0f53 083b 12b3 563e
000000d0: 3dac cbbd b142 b6bd ee7f 8b3e 1b8a f33d
000000e0: 0742 013d 3eec 573e 8f09 b43e 94e7 cd3c
000000f0: e2cf db3e 2415 0fbf 8ab3 3e3f 609d 733f
00000100: 0e7d afbe 877a 333c e8ac c43c 0e2b 3c3e
00000110: b859 e33c 6a02 763e ee8f f33e 887f 7e3e
00000120: faea 66be be1e 5fbf 6a6f 04bf dee4 b93d
00000130: 1d60 ac3e 4357 90be a4ec 72be 23e5 2ebd
00000140: f64d c6be 89b2 96bc 3e07 2f3e d51a 3c3e
00000150: 9193 113f d05b 50be 7b9a 6f3e 3f16 523e
00000160: 4ac2 223e f38d 913d 3ab3 1d3e ab94 32bf
00000170: 2281 88be b380 c23e e56d 923d 0e6b 7abe
00000180: 214f 973e 5a3e c4be 7a58 413e ea53 833d
00000190: 95a0 a3be a2c8 d83e 0188 383f 38d9 043e
000001a0: b28f 363f e873 39be 7207 20bd af7b 3cbf
000001b0: 03c7 03bf 660a 113f 7613 3e3e 9b9b 883c
000001c0: 54d7 d23e 8215 9abe 9efd 423f adc7 ad3e
000001d0: 5a67 603e 3aa0 943c 6f27 203e 7e6f 58be
000001e0: 3a33 543e 2ab7 ad3e 50cc c93d 4a8c 7f3d
000001f0: 8120 4abd 8d0b 5fbe 341d 2dbe 5eac ed3e
00000200: 1476 3b3e 508b 6a3e e15a 953e e2f3 b03e
00000210: b7e4 46be 99ca 0b3d e932 0dbe 6c4f 803e
00000220: c24f 89bd e195 9c3e 5333 d5bd 3921 cdbd
00000230: 7dbb aabe a957 94be f574 9f3e 2e1d 783e
00000240: e886 06be c179 24be 0be9 05be 3d6e 393f
00000250: f9a0 e13e 3cca 773e 7859 ccbe 32d6 dfbe
00000260: ac88 d13e 6711 2e3f 1718 82be 3401 f2be
00000270: 0094 1bbf e7d7 273f f172 ff3e cb0d 4fbd
00000280: ec8c 923c ab49 87be 57a3 34be 87a3 ab3e
00000290: afa2 943e 85ab 903e 13b4 693e 9c82 083e
000002a0: 01f3 e63e 396e 35be 1350 c5be 9fd4 c13d
000002b0: 4402 a43d 3df8 9b3e a03e fd3d a040 79bd
000002c0: 6455 473e 6280 013f 2841 9e3e d8f7 19bf
000002d0: af34 8cbe 2574 e83e 1025 f5bd 7982 10be
000002e0: 28cb 093c 8829 e23e 1058 013e cc62 f8bd
000002f0: 6984 b93e 9a16 23be 2c4c 0b3f 611c 7c3d
00000300: 4159 f9be f3d7 7fbe 5d9e b4bc 5c35 7d3e
00000310: 86f7 c83e c3d6 e1be 71f6 19bf 8e9c d73d
00000320: 162f c9bd c713 393d 90ff f43e 442a 153d
00000330: 8904 e43e 185d 05bf 1de9 19bf f7cc ac3e
00000340: 871e 18bf 78fb 19bf a70e 08bf 647c 56bd
00000350: 1641 e43a 5f47 bb3d ea45 603e 5d51 bb3e
00000360: f847 a93c 8883 dbbd 2501 23bd 5df1 5d3e
00000370: 7460 843e dfb2 cd3e 10f3 cdbd 3168 8dbd
00000380: 6194 3e3e 364c 1c3e 0d66 18be 0602 f33d
00000390: 30e2 c93e c236 bf3e a873 35be 5c06 55bd
000003a0: 79b0 ac3e 89cf e2be c74c 043e 8fe3 c0be
000003b0: 4c0b d73e a75c 9b3d ce16 1bbf 3dc0 edbe
000003c0: 8a7c 9f3e 946e 04bf 4d29 213e 4ec5 e63d
000003d0: 3915 79bd 1933 c0be 35bf 143f 9c09 ea3c
000003e0: 7a3b 24be 6cdb 6d3f e520 5e3e 556c 853d
000003f0: 676d 1fbe 0417 853e 9364 8f3e 3846 6f3e

l1.bias f4 [10]
0.73048824 0.7584552 0.6014884 0.5392462 0.64597344 0.49260205 0.6157723 0.85002524
0.7996106 0.45586982
00000000: 4701 3b3f 1f2a 423f 25fb 193f 0a0c 0a3f
00000010: 845e 253f 5636 fc3e 41a3 1d3f 419b 593f
00000020: 48b3 4c3f c567 e93e

l2.weight f4 [10, 10]
-0.95686924 0.7487449 0.89004815 0.22757079 -0.10731285 -0.7542858 1.0237726 0.43392223
-0.29224673 -0.7902014 1.5925108 1.1799133 -0.5293958 -0.62437636 0.19039741 0.8109114
-0.79021066 0.30120075 -0.6786129 0.9405151 -0.09125256 0.67415714 0.86099356 1.067966
0.31629443 0.34315732 0.7562797 -0.013425763 -0.5204497 -0.8878919 -0.46735144 1.0466868
1.0497266 0.969306 1.1947256 -0.7623287 1.1212583 0.83421737 -1.1996144 1.0382197
-0.17204235 -0.28092507 0.91934276 1.1433042 1.3187747 0.39760157 0.9754503 -1.0834064
1.1546947 0.5685142 1.1212357 0.751423 -0.84914964 -0.21205653 0.7809343 0.28640747
-0.13494828 0.073487565 -0.18213002 0.08157737 0.05667805 0.8838557 0.8971715 0.63432735
-1.5320041 0.41390294 -0.4506587 1.7367185 0.1363714 0.32731956 0.7320342 -0.9502681
0.27260557 0.122542985 -0.024970653 1.1694502 -0.6280761 0.97670645 1.3002874 0.7119001
1.1631023 1.0532876 -0.6580908 -0.3859927 0.81337714 -1.0145402 0.69629776 0.8098859
1.1747009 -1.2255355 1.1603519 0.19427669 0.7544777 1.1081588 -0.53147316 1.2300117
0.36347523 -0.31618094 -0.42668322 0.86624414
00000000: 62f5 74bf bfad 3f3f 32da 633f 5108 693e
00000010: d7c6 dbbd e018 41bf fb0a 833f 0e2b de3e
00000020: 5da1 95be a44a 4abf 65d7 cb3f 6607 973f
00000030: 7c86 07bf 21d7 1fbf 8af7 423e e497 4f3f
00000040: 3f4b 4abf fc36 9a3e 93b9 2dbf 99c5 703f
00000050: 9fe2 babd 9095 2c3f 136a 5c3f 1cb3 883f
00000060: 58f1 a13e 51b2 af3e 8c9b 413f bbf7 5bbc
00000070: 313c 05bf e24c 63bf b048 efbe d5f9 853f
00000080: 715d 863f 7024 783f c5ec 983f f927 43bf
00000090: 6485 8f3f 458f 553f f78c 99bf 62e4 843f
000000a0: df2b 30be 69d5 8fbe 0c5a 6b3f cb57 923f
000000b0: 9ccd a83f 6f92 cb3e 1cb7 793f 10ad 8abf
000000c0: 09cd 933f 268a 113f a784 8f3f 425d 403f
000000d0: df61 59bf 5925 59be 4feb 473f 00a4 923e
000000e0: e22f 0abe a680 963d 4b80 3abe 0912 a73d
000000f0: 3e27 683d 5e44 623f 08ad 653f 4763 223f
00000100: b618 c4bf 16eb d33e bdbc e6be cb4c de3f
00000110: f2a4 0b3e 6e96 a73e 9866 3b3f c544 73bf
00000120: f592 8b3e d1f7 fa3d 418f ccbc 8bb0 953f
00000130: 98c9 20bf 6f09 7a3f d16f a63f 163f 363f
00000140: 89e0 943f 21d2 863f a378 28bf d6a0 c5be
00000150: 7c39 503f 74dc 81bf 9240 323f af54 4f3f
00000160: 995c 963f 59de 9cbf 6986 943f 78f0 463e
00000170: 7325 413f 26d8 8d3f a00e 08bf 0671 9d3f
00000180: 6d19 ba3e 78e2 a1be 3976 dabe 2dc2 5d3f

l2.bias f4 [10]
0.37669593 0.5170818 0.15990274 0.03190245 0.24009064 0.13195817 0.5279443 0.25889277
0.8980026 -0.3718351
00000000: 4ade c03e 795f 043f 8bbd 233e 25ac 023d
00000010: 52da 753e 0b20 073e 5c27 073f 988d 843e
00000020: 80e3 653f 2c61 bebe

l3.weight f4 [13, 10]
-0.04695453 0.40195453 0.3518853 0.47579715 -1.6818267 0.74907285 -0.17501123 -0.7527497
0.28609413 -1.6499476 -1.3888968 -1.3846921 -0.16327359 -1.0665807 0.44040918 0.019020628
-1.6665277 0.26965064 0.90869087 -0.93197113 -1.5496628 0.34224835 0.21602017 0.24115506
0.0023165902 0.6972169 -0.8926867 -0.7855791 -0.33282018 0.28202933 -0.7497347 -0.4590071
0.07209274 -1.5374565 -0.42130804 -1.7220646 0.5600497 0.9560023 0.05181889 -0.33120066
0.8839922 -0.72927743 0.34109458 0.48585388 -0.6062518 -1.8001089 0.7737768 -1.2293236
-0.24082157 -0.1613969 -1.2952833 0.61368024 -0.73662376 -1.4078012 -1.1253189 0.18008134
0.5200507 0.18824495 0.565795 -0.9674988 0.7377235 -0.9428071 0.29483098 0.28744122
0.34586614 -0.7080498 -1.5070392 -1.2906816 0.52373844 -1.4601941 -0.8234118 -0.23567651
-0.5315955 0.26218933 0.037587296 -0.49650216 -0.10699745 0.338886 0.2690657 -1.7556105
-0.42985693 -0.14681377 -0.71880895 -0.25061485 -0.8112848 -1.1823342 -0.3020174 -0.75906456
-0.5044931 -0.37417465 -0.9573381 0.6901039 -0.64881027 -0.13284597 -1.3960379 0.0959153
0.45550445 0.45303595 -1.3280292 0.24021043 -1.1431502 0.1048207 0.1776964 0.0045980164
-0.08014495 -0.47078735 0.53918076 -0.14681625 -0.56625485 0.45294842 -1.5035505 0.4005394
-0.09554349 -1.6922915 -0.11412293 0.51718897 -1.0653081 0.5147293 0.05376223 0.54357296
-0.36744326 -1.0039623 0.124220215 0.33104613 0.98004454 -1.4798627 -0.39629918 0.079489455
-1.3900019 0.12418515
00000000: 6553 40bd fccc cd3e 4f2a b43e af9b f33e
00000010: 1946 d7bf 3dc3 3f3f 2536 33be 34b4 40bf
00000020: ee7a 923e 7c31 d3bf 5fc7 b1bf 973d b1bf
00000030: 3131 27be b785 88bf 507d e13e 26d1 9b3c
00000040: c850 d5bf a60f 8a3e f79f 683f a995 6ebf
00000050: 5a5b c6bf 2d3b af3e 6434 5d3e 5af1 763e
00000060: efd1 173b cf7c 323f 1e87 64bf b61b 49bf
00000070: 6867 aabe 2666 903e 9dee 3fbf fb02 ebbe
00000080: 5ca5 933d 60cb c4bf b0b5 d7be 9d6c dcbf
00000090: 6b5f 0f3f 91bc 743f 0b40 543d 2293 a9be
000000a0: 504d 623f edb1 3abf f3a3 ae3e d7c1 f83e
000000b0: 5133 1bbf f869 e6bf 3d16 463f 7a5a 9dbf
000000c0: ee99 76be 3b45 25be d8cb a5bf 261a 1d3f
000000d0: 6093 3cbf d432 b4bf 730a 90bf 3e67 383e
000000e0: 0b22 053f 49c3 403e f1d7 103f 00ae 77bf
000000f0: 73db 3c3f ce5b 71bf 16f4 963e 7f2b 933e
00000100: 5e15 b13e c042 35bf a9e6 c0bf 0e35 a5bf
00000110: b913 063f a4e7 babf 1ecb 52bf 2f55 71be
00000120: a516 08bf ae3d 863e 23f5 193d 8835 febe
00000130: 7b21 dbbd 7782 ad3e fbc2 893e d8b7 e0bf
00000140: 3516 dcbe 5956 16be dd03 38bf 9750 80be
00000150: 5cb0 4fbf ba56 97bf 06a2 9abe 0e52 42bf
00000160: 7626 01bf d293 bfbe 1c14 75bf a6aa 303f
00000170: 6e18 26bf c608 08be 5fb1 b2bf 3e6f c43d
00000180: e137 e93e 54f4 e73e dcfc a9bf b9f9 753e
00000190: bf52 92bf 3cac d63d 0cf6 353e f5aa 963b
000001a0: 0923 a4bd 0a0b f1be c007 0a3f 0057 16be
000001b0: 14f6 10bf dbe8 e73e 5874 c0bf 8013 cd3e
000001c0: 4eac c3bd 029d d8bf 48b9 e9bd 7f66 043f
000001d0: 045c 88bf 4dc5 033f c935 5c3d 9927 0b3f
000001e0: 8621 bcbe d681 80bf 2b67 fe3d e17e a93e
000001f0: 33e4 7a3f 246c bdbf bae7 cabe 5ecb a23d
00000200: 95eb b1bf c954 fe3d

l3.bias f4 [13]
-0.11749804 0.41971108 -0.42489684 -0.023382587 -0.2968422 0.6387277 0.23937672 0.23746963
-0.5819239 -0.117995486 -0.21922465 0.11835454 -0.16573699
00000000: d0a2 f0bd 5fe4 d63e 148c d9be d78c bfbc
00000010: b3fb 97be a983 233f 2c1f 753e 3d2b 733e
00000020: f7f8 14bf 9ea7 f1bd 6d7c 60be dd63 f23d
00000030: f5b6 29be
