data.pth (torch, 5335 bytes, 6 tensors)

l1.weight f4 [12, 39]
0.15316837 0.3083038 0.43118677 0.07155252 0.1427819 0.4408575 -0.07543316 -0.34910676
0.19113284 0.31924662 0.34826303 0.342291 0.31542048 -0.34584147 0.31595773 0.48932663
0.46194202 0.4239857 0.26018617 -0.04580312 0.12609383 -0.2056924 0.14819202 0.3777232
-0.26509783 0.08742777 0.4648879 0.2724717 0.15476201 -0.12223853 0.26255578 -0.15447459
0.055921175 0.077895395 0.1193295 0.1696219 0.41586056 0.35019526 0.16796738 0.02801828
0.09906616 0.22215027 -0.25868276 0.28308156 -0.24735123 -0.1956186 0.40007246 0.18638219
-0.32923013 0.13772066 0.00055066845 0.093393 0.5203618 0.32218036 0.4240803 0.4744867
0.1989432 -0.038038667 -0.0087083215 -0.3809062 0.38882095 -0.19035791 0.22891106 -0.024009522
-0.19371483 -0.08947099 -0.18887754 0.12993333 0.17457259 -0.12407755 0.17306389 -0.55159223
-0.25756514 0.3480315 0.2831841 0.10507612 0.15615654 0.24035034 0.007961879 -0.14115554
-0.020604463 0.4099502 -0.44045913 0.3848484 -0.355392 0.093592346 -0.20925345 0.482855
-0.34644017 -0.040410142 -0.260007 0.16375722 -0.15766266 0.28605634 0.44651487 0.338627
0.17024459 0.2982481 -0.24950026 0.623754 0.4573541 -0.25398287 -0.085630335 0.1074942
0.08105864 0.33623686 -0.13655996 0.37983713 0.31813127 0.40796852 -0.57546103 0.34818858
0.2918845 -0.091474526 -0.31363082 -0.092915624 -0.05957751 -0.08067814 0.03508271 0.14440201
-0.008946599 -0.09083103 -0.24828863 0.5380022 0.27351686 -0.21032314 -0.14556606 -0.17328471
0.091288365 -0.30927598 0.22510593 -0.0017494465 -0.39384976 -0.39380464 -0.3938476 -0.011503797
0.1595718 0.44706613 0.21053201 0.08502401 -0.15599717 0.13440076 0.09403493 -0.28521946
-0.028425843 -0.08338389 0.24030064 -0.21990064 0.09078501 0.7763862 -0.044992786 -0.09871116
0.18329687 -0.27937597 0.106083386 0.35001552 -0.08250361 0.06993561 -0.05327632 0.46247014
-0.16727789 0.4882879 0.27611348 0.44438156 -0.23162083 0.63214165 -0.3249957 0.030728659
-0.13675137 0.39594865 -0.37420094 -0.4069634 -0.40695578 -0.40695852 0.19967408 0.2000579
0.34951535 0.29328734 0.30250284 -0.18167938 0.3154962 0.15193515 0.106066756 0.32475424
-0.13378763 0.13932458 0.37506396 0.1875213 0.5531651 0.37546563 -0.009134531 -0.0034673526
-0.388993 -0.09791163 0.053369198 0.3640915 0.3204862 0.5680903 0.078977555 0.47403526
0.17894106 0.23606661 -0.25171855 0.31403905 -0.13456918 0.4517996 0.38387102 0.51288253
-0.2516264 0.36561128 -0.2517255 -0.19702184 -0.24632184 0.08625667 -0.07077146 0.38468283
-0.32928106 -0.11940107 0.15993457 0.299879 -0.3027289 0.31063113 0.10126209 0.25363126
-0.27109063 0.113318756 -0.32528597 0.58043057 -0.29684094 -0.008356965 0.24109721 0.33860928
0.2879116 0.53792375 -0.10178786 -0.1464284 0.029839115 -0.18266301 -0.08151687 -0.32663637
0.23203923 0.3180408 0.0066752653 -0.29153958 -0.18330191 -0.08740751 -0.092195965 0.3286609
0.010187831 0.4852602 0.40829372 0.37048066 -0.16186324 0.103397846 0.2556604 0.35910994
00000000: 2bd8 1c3e ffd9 9d3e 83c4 dc3e 218a 923d
00000010: 6b35 123e 13b8 e13e b37c 9abd 1fbe b2be
00000020: 54b8 433e 4b74 a33e 884f b23e c440 af3e
00000030: cb7e a13e 2212 b1be 36c5 a13e 0589 fa3e
00000040: aa83 ec3e a714 d93e 1f37 853e 0d9c 3bbd
00000050: be1e 013e 07a1 52be a6bf 173e ef64 c13e
00000060: e7ba 87be 550d b33d c905 ee3e 6981 8b3e
00000070: ef79 1e3e 3258 fabd b66d 863e 962e 1ebe
00000080: 9a0d 653d 9f87 9f3d 0663 f43d 5db1 2d3e
00000090: adeb d43e cb4c b33e a4ff 2b3e 9886 e53c
000000a0: 33e3 ca3d 5c7b 633e 1172 84be 11f0 903e
000000b0: a449 7dbe 3e50 48be 4cd6 cc3e f9da 3e3e
000000c0: da90 a8be a506 0d3e bc5a 103a d444 bf3d
000000d0: 6e36 053f d3f4 a43e 0e21 d93e ecef f23e
000000e0: c4b7 4b3e 6fce 1bbd 59ad 0ebc 2306 c3be
000000f0: 8a13 c73e 2fed 42be a967 6a3e 9eaf c4bc
00000100: 2e5d 46be 913c b7bd 1d69 41be 3e0d 053e
00000110: 28c3 323e 5f1c febd a937 313e 2635 0dbf
00000120: 94df 83be 2f31 b23e 82fd 903e 2632 d73d
00000130: 80e7 1f3e 661e 763e 8a72 023c 148b 10be
00000140: b1ca a8bc fee4 d13e dc83 e1be d90a c53e
00000150: f1f5 b5be 58ad bf3d 8946 56be c538 f73e
00000160: 9b60 b1be 1b85 25bd a31f 85be f9af 273e
00000170: 5272 21be fa75 923e 999d e43e 8560 ad3e
00000180: 9954 2e3e fab3 983e ff7c 7fbe 58ae 1f3f
00000190: 512a ea3e 0b0a 82be f55e afbd eb25 dc3d
000001a0: 1202 a63d 3d27 ac3e 60d6 0bbe 037a c23e
000001b0: 1ae2 a23e 40e1 d03e 6a51 13bf c645 b23e
000001c0: e371 953e ff56 bbbd 3894 a0be 8c4a bebd
000001d0: 8c07 74bd 953a a5bd e3b2 0f3d 1fde 133e
000001e0: c294 12bc 9e05 babd 603f 7ebe 83ba 093f
000001f0: 670a 8c3e f35e 57be 450f 15be 8c71 31be
00000200: 65f5 ba3d 6c59 9ebe 2b82 663e af4d e5ba
00000210: ada6 c9be c3a0 c9be 65a6 c9be 6c7a 3cbc
00000220: ca66 233e dae5 e43e b495 573e 1121 ae3d
00000230: b9bd 1fbe 5aa0 093e 6395 c03d 4908 92be
00000240: 50dd e8bc 2cc5 aabd 5f11 763e a22d 61be
00000250: 7eed b93d 3fc1 463f 5b4a 38bd 1429 cabd
00000260: 2db2 3b3e 5e0a 8fbe 3f42 d93d 3c35 b33e
00000270: a7f7 a8bd 673a 8f3d 4538 5abd e3c8 ec3e
00000280: e54a 2bbe df00 fa3e bf5e 8d3e fb85 e33e
00000290: 032e 6dbe 09d4 213f d665 a6be abba fb3c
000002a0: 8d08 0cbe c8b9 ca3e 4497 bfbe 825d d0be
000002b0: 825c d0be de5c d0be 5d77 4c3e fadb 4c3e
000002c0: adf3 b23e c229 963e a7e1 9a3e 290a 3abe
000002d0: b888 a13e e394 1b3e 8739 d93d 3046 a63e
000002e0: a0ff 08be 1aab 0e3e 6208 c03e 9505 403e
000002f0: 3a9c 0d3f 083d c03e 00a9 15bc 863c 63bb
00000300: 172a c7be e585 c8bd a999 5a3d 336a ba3e
00000310: c416 a43e 5e6e 113f fcbe a13d c0b4 f23e
00000320: 533c 373e 72bb 713e 41e1 80be bac9 a03e
00000330: 81cc 09be 4752 e73e be8a c43e 454c 033f
00000340: 2dd5 80be 6731 bb3e 2ae2 80be 18c0 49be
00000350: cb3b 7cbe 56a7 b03d a1f0 90bd 26f5 c43e
00000360: 8797 a8be 8c88 f4bd e3c5 233e be89 993e
00000370: 48ff 9abe 0b0b 9f3e 8062 cf3d f5db 813e
00000380: 64cc 8abe aa13 e83d e28b a6be 1997 143f
00000390: 89fb 97be a7eb 08bc 30e2 763e 325e ad3e
000003a0: 2669 933e 5fb5 093f 2776 d0bd 54f1 15be
000003b0: 2971 f43c 030c 3bbe 51f2 a6bd e23c a7be
000003c0: b19b 6d3e 3ed6 a23e 2fbc da3b ad44 95be
000003d0: 7fb3 3bbe b502 b3bd 3dd1 bcbd 3e46 a83e
000003e0: dcea 263c 0674 f83e e00b d13e a4af bd3e
000003f0: 7abf 25be 40c2 d33d ece5 823e 42dd b73e

l1.bias f4 [12]
0.34909937 0.5765485 0.60495824 0.3938465 0.4069741 0.25164896 0.6181477 0.5373956
0.33926332 0.4387206 0.37628147 0.49216303
00000000: 27bd b23e af98 133f 8bde 1a3f 40a6 c93e
00000010: e95e d03e 22d8 803e ed3e 1e3f c292 093f
00000020: ecb3 ad3e fd9f e03e f7a7 c03e cbfc fb3e

l2.weight f4 [12, 12]
0.34823805 -0.23360617 0.47711462 -0.46006706 0.55992764 0.5395879 -0.48101985 -0.40899816
-0.46173248 0.5376019 0.60630286 -0.28782687 -0.016564513 0.70745397 0.52735853 -0.3532339
-0.13220006 -0.7547574 0.74557203 0.38186198 0.01880509 -0.35088614 0.3810992 0.7817363
-0.36597514 0.075284265 -0.8293214 0.565695 0.6680834 0.94321454 0.5137061 0.6188076
0.6113594 0.21149959 -0.007920779 -0.32546997 -0.29752177 0.61966574 0.42203757 0.43998238
-0.02013239 -0.4342063 0.69189787 0.6296208 0.48339525 -0.6773577 0.3548811 0.7455739
0.65688777 0.13441102 -0.2561147 0.39539626 -0.3064878 0.34048435 0.4509654 0.47437665
-0.027827686 0.8911228 -0.75210303 -0.31950223 -0.43102592 -0.22686093 -0.060530428 0.87358785
0.81411034 0.19677848 0.25556532 0.54822874 0.7780178 0.38616374 0.76868284 -0.37859145
0.7542717 0.07306809 0.3901032 -0.6489303 -0.6580798 -0.092380345 0.27595013 0.3902258
-0.4757891 0.584776 -0.4029934 0.298983 0.6454551 -0.25471956 -0.0068984446 -0.2135499
-0.1049689 0.7801989 -0.6601234 -0.45037687 -0.35804948 0.5765415 0.58011 0.10728384
0.573498 0.5419801 -0.46001816 -0.63066626 -0.6280333 0.71270746 0.4663098 -0.02148718
-0.40375155 0.20862743 0.07790051 0.24596556 0.46669444 0.570574 0.51334506 -0.4923603
-0.5007371 0.000105418694 0.21594396 0.28931245 -0.45406666 0.36095053 -0.43242428 0.94837034
0.5722962 -0.45792404 0.6400179 -0.14525916 0.27784473 0.05795452 -0.4347406 -0.38912046
-0.17041636 0.26721042 0.662552 -0.4084981 0.005812096 -0.15838215 0.8016809 0.35995874
0.75579 -0.24494062 0.35970268 0.4015622 -0.012337665 0.14796159 0.24686767 -0.4593558
00000000: 424c b23e 7536 6fbe 5e48 f43e e98d ebbe
00000010: 6b57 0f3f 6f22 0a3f 3c48 f6be 3568 d1be
00000020: 3368 ecbe 47a0 093f aa36 1b3f 0b5e 93be
00000030: 4db2 87bc b41b 353f f800 073f 13db b4be
00000040: 745f 07be c837 41bf cfdd 3e3f 6a83 c33e
00000050: 220d 9a3c 59a7 b3be 6f1f c33e df1f 483f
00000060: 1861 bbbe a32e 9a3d 684e 54bf 63d1 103f
00000070: 8407 2b3f 8276 713f 3e82 033f 2d6a 1e3f
00000080: 0d82 1c3f 5993 583e 28c6 01bc 00a4 a6be
00000090: c654 98be 6aa2 1e3f 4f15 d83e 5f45 e13e
000000a0: afec a4bc 4a50 debe 3820 313f d42e 213f
000000b0: 957f f73e 5067 2dbf fab2 b53e eedd 3e3f
000000c0: cc29 283f 0ba3 093e 7721 83be 6171 ca3e
000000d0: f8eb 9cbe f753 ae3e f0e4 e63e 7fe1 f23e
000000e0: e3f6 e3bc a020 643f d389 40bf cc95 a3be
000000f0: 6eaf dcbe 3b4e 68be c1ee 77bd 74a3 5f3f
00000100: 8969 503f 4c80 493e 75d9 823e b858 0c3f
00000110: 2d2c 473f 41b7 c53e 66c8 443f bdd6 c1be
00000120: f317 413f b9a4 953d 9bbb c73e 4c20 26bf
00000130: eb77 28bf e831 bdbd 5649 8d3e adcb c73e
00000140: a19a f3be e1b3 153f 2755 cebe 4d14 993e
00000150: 8c3c 253f 9a6a 82be 590c e2bb d3ac 5abe
00000160: eff9 d6bd 1dbb 473f d9fd 28bf cc97 e6be
00000170: 4352 b7be 3998 133f 1782 143f a1b7 db3d
00000180: c4d0 123f 35bf 0a3f 8087 ebbe 5873 21bf
00000190: cac6 20bf ff73 363f 28c0 ee3e e205 b0bc
000001a0: 86b8 cebe 6ea2 553e 4d8a 9f3d 65de 7b3e
000001b0: 93f2 ee3e 2311 123f 956a 033f a616 fcbe
000001c0: 4e30 00bf 3b14 dd38 6a20 5d3e c320 943e
000001d0: 6d7b e8be 82ce b83e b766 ddbe 66c8 723f
000001e0: 0182 123f 0575 eabe 37d8 233f d1be 14be
000001f0: aa41 8e3e b861 6d3d 5296 debe cc3a c7be
00000200: a081 2ebe cecf 883e 029d 293f aa26 d1be
00000210: 6573 be3b ee2e 22be f63a 4d3f 834c b83e
00000220: 747b 413f b7d1 7abe f32a b83e 9099 cd3e
00000230: eb23 4abc 3e83 173e e1ca 7c3e af30 ebbe

l2.bias f4 [12]
0.15618043 0.40710765 0.10219528 0.40286192 0.3519612 0.041037466 0.3928933 0.22439915
0.1910741 0.32708323 0.3383962 0.47188327
00000000: c3ed 1f3e 6a70 d03e c24b d13d eb43 ce3e
00000010: 4234 b43e e716 283d 5029 c93e e4c8 653e
00000020: eea8 433e 7477 a73e 4442 ad3e af9a f13e

l3.weight f4 [5, 12]
0.5337734 -0.3482149 -0.71978366 -0.63249254 -0.47054586 0.31497943 0.057164233 0.32314312
-0.59755987 -0.15671606 0.41541442 0.3630788 -0.38182214 0.6771315 0.012435004 0.63622916
-1.1085594 0.33509758 -0.67992586 -0.11918743 -0.8560243 -0.049192563 -0.5580916 0.022316726
-0.7360993 0.5857944 -0.9905696 0.12082606 0.56034726 -0.9010278 0.62592274 -0.22806431
-0.09870412 0.58389425 -0.42833567 -0.11437409 0.12767173 -0.72430605 -0.0002982977 -0.69173807
0.22912745 -0.50359005 0.26335943 0.4263122 0.53235865 0.2595253 -0.043037813 -0.7354931
-0.5300384 -0.757663 0.60908884 -0.077858925 0.5460426 0.6060016 -0.38481688 -0.17706656
-0.35269868 -0.7077657 -0.44755617 0.011351751
00000000: 60a5 083f 3949 b2be be43 38bf 08eb 21bf
00000010: 63eb f0be fc44 a13e 0b25 6a3d 0473 a53e
00000020: aff9 18bf 2d7a 20be 33b1 d43e 77e5 b93e
00000030: 317e c3be 7d58 2d3f 30bc 4b3c eadf 223f
00000040: 46e5 8dbf e991 ab3e 9f0f 2ebf 8a18 f4bd
00000050: 6924 5bbf 247e 49bd 17df 0ebf 91d1 b63c
00000060: 0171 3cbf 9ff6 153f f895 7dbf a773 f73d
00000070: eb72 0f3f c2a9 66bf 793c 203f b189 69be
00000080: 6325 cabd 187a 153f d04e dbbe f73c eabd
00000090: 61bc 023e 1f6c 39bf d764 9cb9 bf15 31bf
000000a0: 63a0 6a3e 47eb 00bf 0cd7 863e 9845 da3e
000000b0: a848 083f 80e0 843e 6b48 30bd 4749 3cbf
000000c0: 99b0 07bf 34f6 41bf 3fed 1b3f 8074 9fbd
000000d0: 73c9 0b3f ec22 1b3f b806 c5be f050 35be
000000e0: ec94 b4be 2230 35bf 1526 e5be b2fc 393c

l3.bias f4 [5]
0.1599791 0.08174049 -0.20499092 -0.2191199 -0.009933802
00000000: 90d1 233e 8f67 a73d 24e9 51be f860 60be
00000010: 63c1 22bc
